node {
  name: "global_step/Initializer/zeros"
  op: "Const"
  attr {
    key: "_class"
    value {
      list {
        s: "loc:@global_step"
      }
    }
  }
  attr {
    key: "_output_shapes"
    value {
      list {
        shape {
        }
      }
    }
  }
  attr {
    key: "dtype"
    value {
      type: DT_INT64
    }
  }
  attr {
    key: "value"
    value {
      tensor {
        dtype: DT_INT64
        tensor_shape {
        }
        int64_val: 0
      }
    }
  }
}
node {
  name: "global_step"
  op: "VariableV2"
  attr {
    key: "_class"
    value {
      list {
        s: "loc:@global_step"
      }
    }
  }
  attr {
    key: "_output_shapes"
    value {
      list {
        shape {
        }
      }
    }
  }
  attr {
    key: "container"
    value {
      s: ""
    }
  }
  attr {
    key: "dtype"
    value {
      type: DT_INT64
    }
  }
  attr {
    key: "shape"
    value {
      shape {
      }
    }
  }
  attr {
    key: "shared_name"
    value {
      s: ""
    }
  }
}
node {
  name: "global_step/Assign"
  op: "Assign"
  input: "global_step"
  input: "global_step/Initializer/zeros"
  attr {
    key: "T"
    value {
      type: DT_INT64
    }
  }
  attr {
    key: "_class"
    value {
      list {
        s: "loc:@global_step"
      }
    }
  }
  attr {
    key: "_output_shapes"
    value {
      list {
        shape {
        }
      }
    }
  }
  attr {
    key: "use_locking"
    value {
      b: true
    }
  }
  attr {
    key: "validate_shape"
    value {
      b: true
    }
  }
}
node {
  name: "global_step/read"
  op: "Identity"
  input: "global_step"
  attr {
    key: "T"
    value {
      type: DT_INT64
    }
  }
  attr {
    key: "_class"
    value {
      list {
        s: "loc:@global_step"
      }
    }
  }
  attr {
    key: "_output_shapes"
    value {
      list {
        shape {
        }
      }
    }
  }
}
node {
  name: "global_step/IsVariableInitialized"
  op: "IsVariableInitialized"
  input: "global_step"
  attr {
    key: "_class"
    value {
      list {
        s: "loc:@global_step"
      }
    }
  }
  attr {
    key: "_output_shapes"
    value {
      list {
        shape {
        }
      }
    }
  }
  attr {
    key: "dtype"
    value {
      type: DT_INT64
    }
  }
}
node {
  name: "global_step/cond/Switch"
  op: "Switch"
  input: "global_step/IsVariableInitialized"
  input: "global_step/IsVariableInitialized"
  attr {
    key: "T"
    value {
      type: DT_BOOL
    }
  }
  attr {
    key: "_output_shapes"
    value {
      list {
        shape {
        }
        shape {
        }
      }
    }
  }
}
node {
  name: "global_step/cond/switch_t"
  op: "Identity"
  input: "global_step/cond/Switch:1"
  attr {
    key: "T"
    value {
      type: DT_BOOL
    }
  }
  attr {
    key: "_output_shapes"
    value {
      list {
        shape {
        }
      }
    }
  }
}
node {
  name: "global_step/cond/switch_f"
  op: "Identity"
  input: "global_step/cond/Switch"
  attr {
    key: "T"
    value {
      type: DT_BOOL
    }
  }
  attr {
    key: "_output_shapes"
    value {
      list {
        shape {
        }
      }
    }
  }
}
node {
  name: "global_step/cond/pred_id"
  op: "Identity"
  input: "global_step/IsVariableInitialized"
  attr {
    key: "T"
    value {
      type: DT_BOOL
    }
  }
  attr {
    key: "_output_shapes"
    value {
      list {
        shape {
        }
      }
    }
  }
}
node {
  name: "global_step/cond/read"
  op: "Identity"
  input: "global_step/cond/read/Switch:1"
  attr {
    key: "T"
    value {
      type: DT_INT64
    }
  }
  attr {
    key: "_output_shapes"
    value {
      list {
        shape {
        }
      }
    }
  }
}
node {
  name: "global_step/cond/read/Switch"
  op: "RefSwitch"
  input: "global_step"
  input: "global_step/cond/pred_id"
  attr {
    key: "T"
    value {
      type: DT_INT64
    }
  }
  attr {
    key: "_class"
    value {
      list {
        s: "loc:@global_step"
      }
    }
  }
  attr {
    key: "_output_shapes"
    value {
      list {
        shape {
        }
        shape {
        }
      }
    }
  }
}
node {
  name: "global_step/cond/Switch_1"
  op: "Switch"
  input: "global_step/Initializer/zeros"
  input: "global_step/cond/pred_id"
  attr {
    key: "T"
    value {
      type: DT_INT64
    }
  }
  attr {
    key: "_class"
    value {
      list {
        s: "loc:@global_step"
      }
    }
  }
  attr {
    key: "_output_shapes"
    value {
      list {
        shape {
        }
        shape {
        }
      }
    }
  }
}
node {
  name: "global_step/cond/Merge"
  op: "Merge"
  input: "global_step/cond/Switch_1"
  input: "global_step/cond/read"
  attr {
    key: "N"
    value {
      i: 2
    }
  }
  attr {
    key: "T"
    value {
      type: DT_INT64
    }
  }
  attr {
    key: "_output_shapes"
    value {
      list {
        shape {
        }
        shape {
        }
      }
    }
  }
}
node {
  name: "global_step/add/y"
  op: "Const"
  attr {
    key: "_output_shapes"
    value {
      list {
        shape {
        }
      }
    }
  }
  attr {
    key: "dtype"
    value {
      type: DT_INT64
    }
  }
  attr {
    key: "value"
    value {
      tensor {
        dtype: DT_INT64
        tensor_shape {
        }
        int64_val: 0
      }
    }
  }
}
node {
  name: "global_step/add"
  op: "Add"
  input: "global_step/cond/Merge"
  input: "global_step/add/y"
  attr {
    key: "T"
    value {
      type: DT_INT64
    }
  }
  attr {
    key: "_output_shapes"
    value {
      list {
        shape {
        }
      }
    }
  }
}
node {
  name: "filenames"
  op: "Const"
  device: "/device:CPU:0"
  attr {
    key: "_output_shapes"
    value {
      list {
        shape {
        }
      }
    }
  }
  attr {
    key: "dtype"
    value {
      type: DT_STRING
    }
  }
  attr {
    key: "value"
    value {
      tensor {
        dtype: DT_STRING
        tensor_shape {
        }
        string_val: "/memverge/home/songjue/data/tmp/sparse.csv"
      }
    }
  }
}
node {
  name: "compression_type"
  op: "Const"
  device: "/device:CPU:0"
  attr {
    key: "_output_shapes"
    value {
      list {
        shape {
        }
      }
    }
  }
  attr {
    key: "dtype"
    value {
      type: DT_STRING
    }
  }
  attr {
    key: "value"
    value {
      tensor {
        dtype: DT_STRING
        tensor_shape {
        }
        string_val: ""
      }
    }
  }
}
node {
  name: "buffer_size"
  op: "Const"
  device: "/device:CPU:0"
  attr {
    key: "_output_shapes"
    value {
      list {
        shape {
        }
      }
    }
  }
  attr {
    key: "dtype"
    value {
      type: DT_INT64
    }
  }
  attr {
    key: "value"
    value {
      tensor {
        dtype: DT_INT64
        tensor_shape {
        }
        int64_val: 10000
      }
    }
  }
}
node {
  name: "count"
  op: "Const"
  device: "/device:CPU:0"
  attr {
    key: "_output_shapes"
    value {
      list {
        shape {
        }
      }
    }
  }
  attr {
    key: "dtype"
    value {
      type: DT_INT64
    }
  }
  attr {
    key: "value"
    value {
      tensor {
        dtype: DT_INT64
        tensor_shape {
        }
        int64_val: 1
      }
    }
  }
}
node {
  name: "batch_size"
  op: "Const"
  device: "/device:CPU:0"
  attr {
    key: "_output_shapes"
    value {
      list {
        shape {
        }
      }
    }
  }
  attr {
    key: "dtype"
    value {
      type: DT_INT64
    }
  }
  attr {
    key: "value"
    value {
      tensor {
        dtype: DT_INT64
        tensor_shape {
        }
        int64_val: 26
      }
    }
  }
}
node {
  name: "drop_remainder"
  op: "Const"
  device: "/device:CPU:0"
  attr {
    key: "_output_shapes"
    value {
      list {
        shape {
        }
      }
    }
  }
  attr {
    key: "dtype"
    value {
      type: DT_BOOL
    }
  }
  attr {
    key: "value"
    value {
      tensor {
        dtype: DT_BOOL
        tensor_shape {
        }
        bool_val: false
      }
    }
  }
}
node {
  name: "buffer_size_1"
  op: "Const"
  device: "/device:CPU:0"
  attr {
    key: "_output_shapes"
    value {
      list {
        shape {
        }
      }
    }
  }
  attr {
    key: "dtype"
    value {
      type: DT_INT64
    }
  }
  attr {
    key: "value"
    value {
      tensor {
        dtype: DT_INT64
        tensor_shape {
        }
        int64_val: 1000
      }
    }
  }
}
node {
  name: "IteratorV2"
  op: "IteratorV2"
  attr {
    key: "_output_shapes"
    value {
      list {
        shape {
        }
      }
    }
  }
  attr {
    key: "container"
    value {
      s: ""
    }
  }
  attr {
    key: "output_shapes"
    value {
      list {
        shape {
          dim {
            size: 26
          }
          dim {
            size: -1
          }
        }
        shape {
          dim {
            size: 26
          }
          dim {
            size: -1
          }
        }
        shape {
          dim {
            size: 26
          }
          dim {
            size: -1
          }
        }
        shape {
          dim {
            size: 26
          }
          dim {
            size: -1
          }
        }
        shape {
          dim {
            size: 26
          }
          dim {
            size: -1
          }
        }
        shape {
          dim {
            size: 26
          }
          dim {
            size: -1
          }
        }
        shape {
          dim {
            size: -1
          }
          dim {
            size: 1
          }
        }
      }
    }
  }
  attr {
    key: "output_types"
    value {
      list {
        type: DT_STRING
        type: DT_STRING
        type: DT_STRING
        type: DT_STRING
        type: DT_STRING
        type: DT_STRING
        type: DT_STRING
      }
    }
  }
  attr {
    key: "shared_name"
    value {
      s: ""
    }
  }
}
node {
  name: "TextLineDataset"
  op: "TextLineDataset"
  input: "filenames"
  input: "compression_type"
  input: "buffer_size"
  attr {
    key: "_class"
    value {
      list {
        s: "loc:@IteratorV2"
      }
    }
  }
  attr {
    key: "_output_shapes"
    value {
      list {
        shape {
        }
      }
    }
  }
}
node {
  name: "SkipDataset"
  op: "SkipDataset"
  input: "TextLineDataset"
  input: "count"
  attr {
    key: "_class"
    value {
      list {
        s: "loc:@IteratorV2"
      }
    }
  }
  attr {
    key: "_output_shapes"
    value {
      list {
        shape {
        }
      }
    }
  }
  attr {
    key: "output_shapes"
    value {
      list {
        shape {
        }
      }
    }
  }
  attr {
    key: "output_types"
    value {
      list {
        type: DT_STRING
      }
    }
  }
}
node {
  name: "BatchDatasetV2"
  op: "BatchDatasetV2"
  input: "SkipDataset"
  input: "batch_size"
  input: "drop_remainder"
  attr {
    key: "_class"
    value {
      list {
        s: "loc:@IteratorV2"
      }
    }
  }
  attr {
    key: "_output_shapes"
    value {
      list {
        shape {
        }
      }
    }
  }
  attr {
    key: "output_shapes"
    value {
      list {
        shape {
          dim {
            size: -1
          }
        }
      }
    }
  }
  attr {
    key: "output_types"
    value {
      list {
        type: DT_STRING
      }
    }
  }
}
node {
  name: "MapDataset"
  op: "MapDataset"
  input: "BatchDatasetV2"
  attr {
    key: "Targuments"
    value {
      list {
      }
    }
  }
  attr {
    key: "_class"
    value {
      list {
        s: "loc:@IteratorV2"
      }
    }
  }
  attr {
    key: "_output_shapes"
    value {
      list {
        shape {
        }
      }
    }
  }
  attr {
    key: "f"
    value {
      func {
        name: "Dataset_map_parse_one_batch_26"
      }
    }
  }
  attr {
    key: "output_shapes"
    value {
      list {
        shape {
          dim {
            size: 26
          }
          dim {
            size: -1
          }
        }
        shape {
          dim {
            size: 26
          }
          dim {
            size: -1
          }
        }
        shape {
          dim {
            size: 26
          }
          dim {
            size: -1
          }
        }
        shape {
          dim {
            size: 26
          }
          dim {
            size: -1
          }
        }
        shape {
          dim {
            size: 26
          }
          dim {
            size: -1
          }
        }
        shape {
          dim {
            size: 26
          }
          dim {
            size: -1
          }
        }
        shape {
          dim {
            size: -1
          }
          dim {
            size: 1
          }
        }
      }
    }
  }
  attr {
    key: "output_types"
    value {
      list {
        type: DT_STRING
        type: DT_STRING
        type: DT_STRING
        type: DT_STRING
        type: DT_STRING
        type: DT_STRING
        type: DT_STRING
      }
    }
  }
  attr {
    key: "use_inter_op_parallelism"
    value {
      b: true
    }
  }
}
node {
  name: "PrefetchDataset"
  op: "PrefetchDataset"
  input: "MapDataset"
  input: "buffer_size_1"
  attr {
    key: "_class"
    value {
      list {
        s: "loc:@IteratorV2"
      }
    }
  }
  attr {
    key: "_output_shapes"
    value {
      list {
        shape {
        }
      }
    }
  }
  attr {
    key: "output_shapes"
    value {
      list {
        shape {
          dim {
            size: 26
          }
          dim {
            size: -1
          }
        }
        shape {
          dim {
            size: 26
          }
          dim {
            size: -1
          }
        }
        shape {
          dim {
            size: 26
          }
          dim {
            size: -1
          }
        }
        shape {
          dim {
            size: 26
          }
          dim {
            size: -1
          }
        }
        shape {
          dim {
            size: 26
          }
          dim {
            size: -1
          }
        }
        shape {
          dim {
            size: 26
          }
          dim {
            size: -1
          }
        }
        shape {
          dim {
            size: -1
          }
          dim {
            size: 1
          }
        }
      }
    }
  }
  attr {
    key: "output_types"
    value {
      list {
        type: DT_STRING
        type: DT_STRING
        type: DT_STRING
        type: DT_STRING
        type: DT_STRING
        type: DT_STRING
        type: DT_STRING
      }
    }
  }
}
node {
  name: "ModelDataset"
  op: "ModelDataset"
  input: "PrefetchDataset"
  attr {
    key: "_class"
    value {
      list {
        s: "loc:@IteratorV2"
      }
    }
  }
  attr {
    key: "_output_shapes"
    value {
      list {
        shape {
        }
      }
    }
  }
  attr {
    key: "output_shapes"
    value {
      list {
        shape {
          dim {
            size: 26
          }
          dim {
            size: -1
          }
        }
        shape {
          dim {
            size: 26
          }
          dim {
            size: -1
          }
        }
        shape {
          dim {
            size: 26
          }
          dim {
            size: -1
          }
        }
        shape {
          dim {
            size: 26
          }
          dim {
            size: -1
          }
        }
        shape {
          dim {
            size: 26
          }
          dim {
            size: -1
          }
        }
        shape {
          dim {
            size: 26
          }
          dim {
            size: -1
          }
        }
        shape {
          dim {
            size: -1
          }
          dim {
            size: 1
          }
        }
      }
    }
  }
  attr {
    key: "output_types"
    value {
      list {
        type: DT_STRING
        type: DT_STRING
        type: DT_STRING
        type: DT_STRING
        type: DT_STRING
        type: DT_STRING
        type: DT_STRING
      }
    }
  }
}
node {
  name: "MakeIterator"
  op: "MakeIterator"
  input: "ModelDataset"
  input: "IteratorV2"
  attr {
    key: "_class"
    value {
      list {
        s: "loc:@IteratorV2"
      }
    }
  }
}
node {
  name: "IteratorToStringHandle"
  op: "IteratorToStringHandle"
  input: "IteratorV2"
  attr {
    key: "_output_shapes"
    value {
      list {
        shape {
        }
      }
    }
  }
}
node {
  name: "IteratorGetNext"
  op: "IteratorGetNext"
  input: "IteratorV2"
  attr {
    key: "_output_shapes"
    value {
      list {
        shape {
          dim {
            size: 26
          }
          dim {
            size: -1
          }
        }
        shape {
          dim {
            size: 26
          }
          dim {
            size: -1
          }
        }
        shape {
          dim {
            size: 26
          }
          dim {
            size: -1
          }
        }
        shape {
          dim {
            size: 26
          }
          dim {
            size: -1
          }
        }
        shape {
          dim {
            size: 26
          }
          dim {
            size: -1
          }
        }
        shape {
          dim {
            size: 26
          }
          dim {
            size: -1
          }
        }
        shape {
          dim {
            size: -1
          }
          dim {
            size: 1
          }
        }
      }
    }
  }
  attr {
    key: "output_shapes"
    value {
      list {
        shape {
          dim {
            size: 26
          }
          dim {
            size: -1
          }
        }
        shape {
          dim {
            size: 26
          }
          dim {
            size: -1
          }
        }
        shape {
          dim {
            size: 26
          }
          dim {
            size: -1
          }
        }
        shape {
          dim {
            size: 26
          }
          dim {
            size: -1
          }
        }
        shape {
          dim {
            size: 26
          }
          dim {
            size: -1
          }
        }
        shape {
          dim {
            size: 26
          }
          dim {
            size: -1
          }
        }
        shape {
          dim {
            size: -1
          }
          dim {
            size: 1
          }
        }
      }
    }
  }
  attr {
    key: "output_types"
    value {
      list {
        type: DT_STRING
        type: DT_STRING
        type: DT_STRING
        type: DT_STRING
        type: DT_STRING
        type: DT_STRING
        type: DT_STRING
      }
    }
  }
}
node {
  name: "dnn/input_from_feature_columns/input_layer/d0_embedding/to_sparse_input/ignore_value/x"
  op: "Const"
  attr {
    key: "_output_shapes"
    value {
      list {
        shape {
        }
      }
    }
  }
  attr {
    key: "dtype"
    value {
      type: DT_STRING
    }
  }
  attr {
    key: "value"
    value {
      tensor {
        dtype: DT_STRING
        tensor_shape {
        }
        string_val: ""
      }
    }
  }
}
node {
  name: "dnn/input_from_feature_columns/input_layer/d0_embedding/to_sparse_input/NotEqual"
  op: "NotEqual"
  input: "IteratorGetNext"
  input: "dnn/input_from_feature_columns/input_layer/d0_embedding/to_sparse_input/ignore_value/x"
  attr {
    key: "T"
    value {
      type: DT_STRING
    }
  }
  attr {
    key: "_output_shapes"
    value {
      list {
        shape {
          dim {
            size: 26
          }
          dim {
            size: -1
          }
        }
      }
    }
  }
}
node {
  name: "dnn/input_from_feature_columns/input_layer/d0_embedding/to_sparse_input/indices"
  op: "Where"
  input: "dnn/input_from_feature_columns/input_layer/d0_embedding/to_sparse_input/NotEqual"
  attr {
    key: "T"
    value {
      type: DT_BOOL
    }
  }
  attr {
    key: "_output_shapes"
    value {
      list {
        shape {
          dim {
            size: -1
          }
          dim {
            size: 2
          }
        }
      }
    }
  }
}
node {
  name: "dnn/input_from_feature_columns/input_layer/d0_embedding/to_sparse_input/values"
  op: "GatherNd"
  input: "IteratorGetNext"
  input: "dnn/input_from_feature_columns/input_layer/d0_embedding/to_sparse_input/indices"
  attr {
    key: "Tindices"
    value {
      type: DT_INT64
    }
  }
  attr {
    key: "Tparams"
    value {
      type: DT_STRING
    }
  }
  attr {
    key: "_output_shapes"
    value {
      list {
        shape {
          dim {
            size: -1
          }
        }
      }
    }
  }
}
node {
  name: "dnn/input_from_feature_columns/input_layer/d0_embedding/to_sparse_input/dense_shape"
  op: "Shape"
  input: "IteratorGetNext"
  attr {
    key: "T"
    value {
      type: DT_STRING
    }
  }
  attr {
    key: "_output_shapes"
    value {
      list {
        shape {
          dim {
            size: 2
          }
        }
      }
    }
  }
  attr {
    key: "out_type"
    value {
      type: DT_INT64
    }
  }
}
node {
  name: "dnn/input_from_feature_columns/input_layer/d0_embedding/lookup"
  op: "StringToHashBucketFast"
  input: "dnn/input_from_feature_columns/input_layer/d0_embedding/to_sparse_input/values"
  attr {
    key: "_output_shapes"
    value {
      list {
        shape {
          dim {
            size: -1
          }
        }
      }
    }
  }
  attr {
    key: "num_buckets"
    value {
      i: 3000
    }
  }
}
node {
  name: "dnn/input_from_feature_columns/input_layer/d0_embedding/embedding_weights/part_0/Initializer/truncated_normal/shape"
  op: "Const"
  attr {
    key: "_class"
    value {
      list {
        s: "loc:@dnn/input_from_feature_columns/input_layer/d0_embedding/embedding_weights/part_0"
      }
    }
  }
  attr {
    key: "_output_shapes"
    value {
      list {
        shape {
          dim {
            size: 2
          }
        }
      }
    }
  }
  attr {
    key: "dtype"
    value {
      type: DT_INT32
    }
  }
  attr {
    key: "value"
    value {
      tensor {
        dtype: DT_INT32
        tensor_shape {
          dim {
            size: 2
          }
        }
        tensor_content: "\270\013\000\000\010\000\000\000"
      }
    }
  }
}
node {
  name: "dnn/input_from_feature_columns/input_layer/d0_embedding/embedding_weights/part_0/Initializer/truncated_normal/mean"
  op: "Const"
  attr {
    key: "_class"
    value {
      list {
        s: "loc:@dnn/input_from_feature_columns/input_layer/d0_embedding/embedding_weights/part_0"
      }
    }
  }
  attr {
    key: "_output_shapes"
    value {
      list {
        shape {
        }
      }
    }
  }
  attr {
    key: "dtype"
    value {
      type: DT_FLOAT
    }
  }
  attr {
    key: "value"
    value {
      tensor {
        dtype: DT_FLOAT
        tensor_shape {
        }
        float_val: 0.0
      }
    }
  }
}
node {
  name: "dnn/input_from_feature_columns/input_layer/d0_embedding/embedding_weights/part_0/Initializer/truncated_normal/stddev"
  op: "Const"
  attr {
    key: "_class"
    value {
      list {
        s: "loc:@dnn/input_from_feature_columns/input_layer/d0_embedding/embedding_weights/part_0"
      }
    }
  }
  attr {
    key: "_output_shapes"
    value {
      list {
        shape {
        }
      }
    }
  }
  attr {
    key: "dtype"
    value {
      type: DT_FLOAT
    }
  }
  attr {
    key: "value"
    value {
      tensor {
        dtype: DT_FLOAT
        tensor_shape {
        }
        float_val: 0.3535533845424652
      }
    }
  }
}
node {
  name: "dnn/input_from_feature_columns/input_layer/d0_embedding/embedding_weights/part_0/Initializer/truncated_normal/TruncatedNormal"
  op: "TruncatedNormal"
  input: "dnn/input_from_feature_columns/input_layer/d0_embedding/embedding_weights/part_0/Initializer/truncated_normal/shape"
  attr {
    key: "T"
    value {
      type: DT_INT32
    }
  }
  attr {
    key: "_class"
    value {
      list {
        s: "loc:@dnn/input_from_feature_columns/input_layer/d0_embedding/embedding_weights/part_0"
      }
    }
  }
  attr {
    key: "_output_shapes"
    value {
      list {
        shape {
          dim {
            size: 3000
          }
          dim {
            size: 8
          }
        }
      }
    }
  }
  attr {
    key: "dtype"
    value {
      type: DT_FLOAT
    }
  }
  attr {
    key: "seed"
    value {
      i: 0
    }
  }
  attr {
    key: "seed2"
    value {
      i: 0
    }
  }
}
node {
  name: "dnn/input_from_feature_columns/input_layer/d0_embedding/embedding_weights/part_0/Initializer/truncated_normal/mul"
  op: "Mul"
  input: "dnn/input_from_feature_columns/input_layer/d0_embedding/embedding_weights/part_0/Initializer/truncated_normal/TruncatedNormal"
  input: "dnn/input_from_feature_columns/input_layer/d0_embedding/embedding_weights/part_0/Initializer/truncated_normal/stddev"
  attr {
    key: "T"
    value {
      type: DT_FLOAT
    }
  }
  attr {
    key: "_class"
    value {
      list {
        s: "loc:@dnn/input_from_feature_columns/input_layer/d0_embedding/embedding_weights/part_0"
      }
    }
  }
  attr {
    key: "_output_shapes"
    value {
      list {
        shape {
          dim {
            size: 3000
          }
          dim {
            size: 8
          }
        }
      }
    }
  }
}
node {
  name: "dnn/input_from_feature_columns/input_layer/d0_embedding/embedding_weights/part_0/Initializer/truncated_normal"
  op: "Add"
  input: "dnn/input_from_feature_columns/input_layer/d0_embedding/embedding_weights/part_0/Initializer/truncated_normal/mul"
  input: "dnn/input_from_feature_columns/input_layer/d0_embedding/embedding_weights/part_0/Initializer/truncated_normal/mean"
  attr {
    key: "T"
    value {
      type: DT_FLOAT
    }
  }
  attr {
    key: "_class"
    value {
      list {
        s: "loc:@dnn/input_from_feature_columns/input_layer/d0_embedding/embedding_weights/part_0"
      }
    }
  }
  attr {
    key: "_output_shapes"
    value {
      list {
        shape {
          dim {
            size: 3000
          }
          dim {
            size: 8
          }
        }
      }
    }
  }
}
node {
  name: "dnn/input_from_feature_columns/input_layer/d0_embedding/embedding_weights/part_0"
  op: "VariableV2"
  attr {
    key: "_class"
    value {
      list {
        s: "loc:@dnn/input_from_feature_columns/input_layer/d0_embedding/embedding_weights/part_0"
      }
    }
  }
  attr {
    key: "_output_shapes"
    value {
      list {
        shape {
          dim {
            size: 3000
          }
          dim {
            size: 8
          }
        }
      }
    }
  }
  attr {
    key: "container"
    value {
      s: ""
    }
  }
  attr {
    key: "dtype"
    value {
      type: DT_FLOAT
    }
  }
  attr {
    key: "shape"
    value {
      shape {
        dim {
          size: 3000
        }
        dim {
          size: 8
        }
      }
    }
  }
  attr {
    key: "shared_name"
    value {
      s: ""
    }
  }
}
node {
  name: "dnn/input_from_feature_columns/input_layer/d0_embedding/embedding_weights/part_0/Assign"
  op: "Assign"
  input: "dnn/input_from_feature_columns/input_layer/d0_embedding/embedding_weights/part_0"
  input: "dnn/input_from_feature_columns/input_layer/d0_embedding/embedding_weights/part_0/Initializer/truncated_normal"
  attr {
    key: "T"
    value {
      type: DT_FLOAT
    }
  }
  attr {
    key: "_class"
    value {
      list {
        s: "loc:@dnn/input_from_feature_columns/input_layer/d0_embedding/embedding_weights/part_0"
      }
    }
  }
  attr {
    key: "_output_shapes"
    value {
      list {
        shape {
          dim {
            size: 3000
          }
          dim {
            size: 8
          }
        }
      }
    }
  }
  attr {
    key: "use_locking"
    value {
      b: true
    }
  }
  attr {
    key: "validate_shape"
    value {
      b: true
    }
  }
}
node {
  name: "dnn/input_from_feature_columns/input_layer/d0_embedding/embedding_weights/part_0/read"
  op: "Identity"
  input: "dnn/input_from_feature_columns/input_layer/d0_embedding/embedding_weights/part_0"
  attr {
    key: "T"
    value {
      type: DT_FLOAT
    }
  }
  attr {
    key: "_class"
    value {
      list {
        s: "loc:@dnn/input_from_feature_columns/input_layer/d0_embedding/embedding_weights/part_0"
      }
    }
  }
  attr {
    key: "_output_shapes"
    value {
      list {
        shape {
          dim {
            size: 3000
          }
          dim {
            size: 8
          }
        }
      }
    }
  }
}
node {
  name: "dnn/input_from_feature_columns/input_layer/d0_embedding/d0_embedding_weights/Slice/begin"
  op: "Const"
  attr {
    key: "_output_shapes"
    value {
      list {
        shape {
          dim {
            size: 1
          }
        }
      }
    }
  }
  attr {
    key: "dtype"
    value {
      type: DT_INT32
    }
  }
  attr {
    key: "value"
    value {
      tensor {
        dtype: DT_INT32
        tensor_shape {
          dim {
            size: 1
          }
        }
        int_val: 0
      }
    }
  }
}
node {
  name: "dnn/input_from_feature_columns/input_layer/d0_embedding/d0_embedding_weights/Slice/size"
  op: "Const"
  attr {
    key: "_output_shapes"
    value {
      list {
        shape {
          dim {
            size: 1
          }
        }
      }
    }
  }
  attr {
    key: "dtype"
    value {
      type: DT_INT32
    }
  }
  attr {
    key: "value"
    value {
      tensor {
        dtype: DT_INT32
        tensor_shape {
          dim {
            size: 1
          }
        }
        int_val: 1
      }
    }
  }
}
node {
  name: "dnn/input_from_feature_columns/input_layer/d0_embedding/d0_embedding_weights/Slice"
  op: "Slice"
  input: "dnn/input_from_feature_columns/input_layer/d0_embedding/to_sparse_input/dense_shape"
  input: "dnn/input_from_feature_columns/input_layer/d0_embedding/d0_embedding_weights/Slice/begin"
  input: "dnn/input_from_feature_columns/input_layer/d0_embedding/d0_embedding_weights/Slice/size"
  attr {
    key: "Index"
    value {
      type: DT_INT32
    }
  }
  attr {
    key: "T"
    value {
      type: DT_INT64
    }
  }
  attr {
    key: "_output_shapes"
    value {
      list {
        shape {
          dim {
            size: 1
          }
        }
      }
    }
  }
}
node {
  name: "dnn/input_from_feature_columns/input_layer/d0_embedding/d0_embedding_weights/Const"
  op: "Const"
  attr {
    key: "_output_shapes"
    value {
      list {
        shape {
          dim {
            size: 1
          }
        }
      }
    }
  }
  attr {
    key: "dtype"
    value {
      type: DT_INT32
    }
  }
  attr {
    key: "value"
    value {
      tensor {
        dtype: DT_INT32
        tensor_shape {
          dim {
            size: 1
          }
        }
        int_val: 0
      }
    }
  }
}
node {
  name: "dnn/input_from_feature_columns/input_layer/d0_embedding/d0_embedding_weights/Prod"
  op: "Prod"
  input: "dnn/input_from_feature_columns/input_layer/d0_embedding/d0_embedding_weights/Slice"
  input: "dnn/input_from_feature_columns/input_layer/d0_embedding/d0_embedding_weights/Const"
  attr {
    key: "T"
    value {
      type: DT_INT64
    }
  }
  attr {
    key: "Tidx"
    value {
      type: DT_INT32
    }
  }
  attr {
    key: "_output_shapes"
    value {
      list {
        shape {
        }
      }
    }
  }
  attr {
    key: "keep_dims"
    value {
      b: false
    }
  }
}
node {
  name: "dnn/input_from_feature_columns/input_layer/d0_embedding/d0_embedding_weights/GatherV2/indices"
  op: "Const"
  attr {
    key: "_output_shapes"
    value {
      list {
        shape {
        }
      }
    }
  }
  attr {
    key: "dtype"
    value {
      type: DT_INT32
    }
  }
  attr {
    key: "value"
    value {
      tensor {
        dtype: DT_INT32
        tensor_shape {
        }
        int_val: 1
      }
    }
  }
}
node {
  name: "dnn/input_from_feature_columns/input_layer/d0_embedding/d0_embedding_weights/GatherV2/axis"
  op: "Const"
  attr {
    key: "_output_shapes"
    value {
      list {
        shape {
        }
      }
    }
  }
  attr {
    key: "dtype"
    value {
      type: DT_INT32
    }
  }
  attr {
    key: "value"
    value {
      tensor {
        dtype: DT_INT32
        tensor_shape {
        }
        int_val: 0
      }
    }
  }
}
node {
  name: "dnn/input_from_feature_columns/input_layer/d0_embedding/d0_embedding_weights/GatherV2"
  op: "GatherV2"
  input: "dnn/input_from_feature_columns/input_layer/d0_embedding/to_sparse_input/dense_shape"
  input: "dnn/input_from_feature_columns/input_layer/d0_embedding/d0_embedding_weights/GatherV2/indices"
  input: "dnn/input_from_feature_columns/input_layer/d0_embedding/d0_embedding_weights/GatherV2/axis"
  attr {
    key: "Taxis"
    value {
      type: DT_INT32
    }
  }
  attr {
    key: "Tindices"
    value {
      type: DT_INT32
    }
  }
  attr {
    key: "Tparams"
    value {
      type: DT_INT64
    }
  }
  attr {
    key: "_output_shapes"
    value {
      list {
        shape {
        }
      }
    }
  }
}
node {
  name: "dnn/input_from_feature_columns/input_layer/d0_embedding/d0_embedding_weights/Cast/x"
  op: "Pack"
  input: "dnn/input_from_feature_columns/input_layer/d0_embedding/d0_embedding_weights/Prod"
  input: "dnn/input_from_feature_columns/input_layer/d0_embedding/d0_embedding_weights/GatherV2"
  attr {
    key: "N"
    value {
      i: 2
    }
  }
  attr {
    key: "T"
    value {
      type: DT_INT64
    }
  }
  attr {
    key: "_output_shapes"
    value {
      list {
        shape {
          dim {
            size: 2
          }
        }
      }
    }
  }
  attr {
    key: "axis"
    value {
      i: 0
    }
  }
}
node {
  name: "dnn/input_from_feature_columns/input_layer/d0_embedding/d0_embedding_weights/SparseReshape"
  op: "SparseReshape"
  input: "dnn/input_from_feature_columns/input_layer/d0_embedding/to_sparse_input/indices"
  input: "dnn/input_from_feature_columns/input_layer/d0_embedding/to_sparse_input/dense_shape"
  input: "dnn/input_from_feature_columns/input_layer/d0_embedding/d0_embedding_weights/Cast/x"
  attr {
    key: "_output_shapes"
    value {
      list {
        shape {
          dim {
            size: -1
          }
          dim {
            size: 2
          }
        }
        shape {
          dim {
            size: 2
          }
        }
      }
    }
  }
}
node {
  name: "dnn/input_from_feature_columns/input_layer/d0_embedding/d0_embedding_weights/SparseReshape/Identity"
  op: "Identity"
  input: "dnn/input_from_feature_columns/input_layer/d0_embedding/lookup"
  attr {
    key: "T"
    value {
      type: DT_INT64
    }
  }
  attr {
    key: "_output_shapes"
    value {
      list {
        shape {
          dim {
            size: -1
          }
        }
      }
    }
  }
}
node {
  name: "dnn/input_from_feature_columns/input_layer/d0_embedding/d0_embedding_weights/GreaterEqual/y"
  op: "Const"
  attr {
    key: "_output_shapes"
    value {
      list {
        shape {
        }
      }
    }
  }
  attr {
    key: "dtype"
    value {
      type: DT_INT64
    }
  }
  attr {
    key: "value"
    value {
      tensor {
        dtype: DT_INT64
        tensor_shape {
        }
        int64_val: 0
      }
    }
  }
}
node {
  name: "dnn/input_from_feature_columns/input_layer/d0_embedding/d0_embedding_weights/GreaterEqual"
  op: "GreaterEqual"
  input: "dnn/input_from_feature_columns/input_layer/d0_embedding/d0_embedding_weights/SparseReshape/Identity"
  input: "dnn/input_from_feature_columns/input_layer/d0_embedding/d0_embedding_weights/GreaterEqual/y"
  attr {
    key: "T"
    value {
      type: DT_INT64
    }
  }
  attr {
    key: "_output_shapes"
    value {
      list {
        shape {
          dim {
            size: -1
          }
        }
      }
    }
  }
}
node {
  name: "dnn/input_from_feature_columns/input_layer/d0_embedding/d0_embedding_weights/Where"
  op: "Where"
  input: "dnn/input_from_feature_columns/input_layer/d0_embedding/d0_embedding_weights/GreaterEqual"
  attr {
    key: "T"
    value {
      type: DT_BOOL
    }
  }
  attr {
    key: "_output_shapes"
    value {
      list {
        shape {
          dim {
            size: -1
          }
          dim {
            size: 1
          }
        }
      }
    }
  }
}
node {
  name: "dnn/input_from_feature_columns/input_layer/d0_embedding/d0_embedding_weights/Reshape/shape"
  op: "Const"
  attr {
    key: "_output_shapes"
    value {
      list {
        shape {
          dim {
            size: 1
          }
        }
      }
    }
  }
  attr {
    key: "dtype"
    value {
      type: DT_INT32
    }
  }
  attr {
    key: "value"
    value {
      tensor {
        dtype: DT_INT32
        tensor_shape {
          dim {
            size: 1
          }
        }
        int_val: -1
      }
    }
  }
}
node {
  name: "dnn/input_from_feature_columns/input_layer/d0_embedding/d0_embedding_weights/Reshape"
  op: "Reshape"
  input: "dnn/input_from_feature_columns/input_layer/d0_embedding/d0_embedding_weights/Where"
  input: "dnn/input_from_feature_columns/input_layer/d0_embedding/d0_embedding_weights/Reshape/shape"
  attr {
    key: "T"
    value {
      type: DT_INT64
    }
  }
  attr {
    key: "Tshape"
    value {
      type: DT_INT32
    }
  }
  attr {
    key: "_output_shapes"
    value {
      list {
        shape {
          dim {
            size: -1
          }
        }
      }
    }
  }
}
node {
  name: "dnn/input_from_feature_columns/input_layer/d0_embedding/d0_embedding_weights/GatherV2_1/axis"
  op: "Const"
  attr {
    key: "_output_shapes"
    value {
      list {
        shape {
        }
      }
    }
  }
  attr {
    key: "dtype"
    value {
      type: DT_INT32
    }
  }
  attr {
    key: "value"
    value {
      tensor {
        dtype: DT_INT32
        tensor_shape {
        }
        int_val: 0
      }
    }
  }
}
node {
  name: "dnn/input_from_feature_columns/input_layer/d0_embedding/d0_embedding_weights/GatherV2_1"
  op: "GatherV2"
  input: "dnn/input_from_feature_columns/input_layer/d0_embedding/d0_embedding_weights/SparseReshape"
  input: "dnn/input_from_feature_columns/input_layer/d0_embedding/d0_embedding_weights/Reshape"
  input: "dnn/input_from_feature_columns/input_layer/d0_embedding/d0_embedding_weights/GatherV2_1/axis"
  attr {
    key: "Taxis"
    value {
      type: DT_INT32
    }
  }
  attr {
    key: "Tindices"
    value {
      type: DT_INT64
    }
  }
  attr {
    key: "Tparams"
    value {
      type: DT_INT64
    }
  }
  attr {
    key: "_output_shapes"
    value {
      list {
        shape {
          dim {
            size: -1
          }
          dim {
            size: 2
          }
        }
      }
    }
  }
}
node {
  name: "dnn/input_from_feature_columns/input_layer/d0_embedding/d0_embedding_weights/GatherV2_2/axis"
  op: "Const"
  attr {
    key: "_output_shapes"
    value {
      list {
        shape {
        }
      }
    }
  }
  attr {
    key: "dtype"
    value {
      type: DT_INT32
    }
  }
  attr {
    key: "value"
    value {
      tensor {
        dtype: DT_INT32
        tensor_shape {
        }
        int_val: 0
      }
    }
  }
}
node {
  name: "dnn/input_from_feature_columns/input_layer/d0_embedding/d0_embedding_weights/GatherV2_2"
  op: "GatherV2"
  input: "dnn/input_from_feature_columns/input_layer/d0_embedding/d0_embedding_weights/SparseReshape/Identity"
  input: "dnn/input_from_feature_columns/input_layer/d0_embedding/d0_embedding_weights/Reshape"
  input: "dnn/input_from_feature_columns/input_layer/d0_embedding/d0_embedding_weights/GatherV2_2/axis"
  attr {
    key: "Taxis"
    value {
      type: DT_INT32
    }
  }
  attr {
    key: "Tindices"
    value {
      type: DT_INT64
    }
  }
  attr {
    key: "Tparams"
    value {
      type: DT_INT64
    }
  }
  attr {
    key: "_output_shapes"
    value {
      list {
        shape {
          dim {
            size: -1
          }
        }
      }
    }
  }
}
node {
  name: "dnn/input_from_feature_columns/input_layer/d0_embedding/d0_embedding_weights/Identity"
  op: "Identity"
  input: "dnn/input_from_feature_columns/input_layer/d0_embedding/d0_embedding_weights/SparseReshape:1"
  attr {
    key: "T"
    value {
      type: DT_INT64
    }
  }
  attr {
    key: "_output_shapes"
    value {
      list {
        shape {
          dim {
            size: 2
          }
        }
      }
    }
  }
}
node {
  name: "dnn/input_from_feature_columns/input_layer/d0_embedding/d0_embedding_weights/SparseFillEmptyRows/Const"
  op: "Const"
  attr {
    key: "_output_shapes"
    value {
      list {
        shape {
        }
      }
    }
  }
  attr {
    key: "dtype"
    value {
      type: DT_INT64
    }
  }
  attr {
    key: "value"
    value {
      tensor {
        dtype: DT_INT64
        tensor_shape {
        }
        int64_val: 0
      }
    }
  }
}
node {
  name: "dnn/input_from_feature_columns/input_layer/d0_embedding/d0_embedding_weights/SparseFillEmptyRows/SparseFillEmptyRows"
  op: "SparseFillEmptyRows"
  input: "dnn/input_from_feature_columns/input_layer/d0_embedding/d0_embedding_weights/GatherV2_1"
  input: "dnn/input_from_feature_columns/input_layer/d0_embedding/d0_embedding_weights/GatherV2_2"
  input: "dnn/input_from_feature_columns/input_layer/d0_embedding/d0_embedding_weights/Identity"
  input: "dnn/input_from_feature_columns/input_layer/d0_embedding/d0_embedding_weights/SparseFillEmptyRows/Const"
  attr {
    key: "T"
    value {
      type: DT_INT64
    }
  }
  attr {
    key: "_output_shapes"
    value {
      list {
        shape {
          dim {
            size: -1
          }
          dim {
            size: 2
          }
        }
        shape {
          dim {
            size: -1
          }
        }
        shape {
          dim {
            size: -1
          }
        }
        shape {
          dim {
            size: -1
          }
        }
      }
    }
  }
}
node {
  name: "dnn/input_from_feature_columns/input_layer/d0_embedding/d0_embedding_weights/embedding_lookup_sparse/strided_slice/stack"
  op: "Const"
  attr {
    key: "_output_shapes"
    value {
      list {
        shape {
          dim {
            size: 2
          }
        }
      }
    }
  }
  attr {
    key: "dtype"
    value {
      type: DT_INT32
    }
  }
  attr {
    key: "value"
    value {
      tensor {
        dtype: DT_INT32
        tensor_shape {
          dim {
            size: 2
          }
        }
        tensor_content: "\000\000\000\000\000\000\000\000"
      }
    }
  }
}
node {
  name: "dnn/input_from_feature_columns/input_layer/d0_embedding/d0_embedding_weights/embedding_lookup_sparse/strided_slice/stack_1"
  op: "Const"
  attr {
    key: "_output_shapes"
    value {
      list {
        shape {
          dim {
            size: 2
          }
        }
      }
    }
  }
  attr {
    key: "dtype"
    value {
      type: DT_INT32
    }
  }
  attr {
    key: "value"
    value {
      tensor {
        dtype: DT_INT32
        tensor_shape {
          dim {
            size: 2
          }
        }
        tensor_content: "\000\000\000\000\001\000\000\000"
      }
    }
  }
}
node {
  name: "dnn/input_from_feature_columns/input_layer/d0_embedding/d0_embedding_weights/embedding_lookup_sparse/strided_slice/stack_2"
  op: "Const"
  attr {
    key: "_output_shapes"
    value {
      list {
        shape {
          dim {
            size: 2
          }
        }
      }
    }
  }
  attr {
    key: "dtype"
    value {
      type: DT_INT32
    }
  }
  attr {
    key: "value"
    value {
      tensor {
        dtype: DT_INT32
        tensor_shape {
          dim {
            size: 2
          }
        }
        tensor_content: "\001\000\000\000\001\000\000\000"
      }
    }
  }
}
node {
  name: "dnn/input_from_feature_columns/input_layer/d0_embedding/d0_embedding_weights/embedding_lookup_sparse/strided_slice"
  op: "StridedSlice"
  input: "dnn/input_from_feature_columns/input_layer/d0_embedding/d0_embedding_weights/SparseFillEmptyRows/SparseFillEmptyRows"
  input: "dnn/input_from_feature_columns/input_layer/d0_embedding/d0_embedding_weights/embedding_lookup_sparse/strided_slice/stack"
  input: "dnn/input_from_feature_columns/input_layer/d0_embedding/d0_embedding_weights/embedding_lookup_sparse/strided_slice/stack_1"
  input: "dnn/input_from_feature_columns/input_layer/d0_embedding/d0_embedding_weights/embedding_lookup_sparse/strided_slice/stack_2"
  attr {
    key: "Index"
    value {
      type: DT_INT32
    }
  }
  attr {
    key: "T"
    value {
      type: DT_INT64
    }
  }
  attr {
    key: "_output_shapes"
    value {
      list {
        shape {
          dim {
            size: -1
          }
        }
      }
    }
  }
  attr {
    key: "begin_mask"
    value {
      i: 1
    }
  }
  attr {
    key: "ellipsis_mask"
    value {
      i: 0
    }
  }
  attr {
    key: "end_mask"
    value {
      i: 1
    }
  }
  attr {
    key: "new_axis_mask"
    value {
      i: 0
    }
  }
  attr {
    key: "shrink_axis_mask"
    value {
      i: 2
    }
  }
}
node {
  name: "dnn/input_from_feature_columns/input_layer/d0_embedding/d0_embedding_weights/embedding_lookup_sparse/Cast"
  op: "Cast"
  input: "dnn/input_from_feature_columns/input_layer/d0_embedding/d0_embedding_weights/embedding_lookup_sparse/strided_slice"
  attr {
    key: "DstT"
    value {
      type: DT_INT32
    }
  }
  attr {
    key: "SrcT"
    value {
      type: DT_INT64
    }
  }
  attr {
    key: "Truncate"
    value {
      b: false
    }
  }
  attr {
    key: "_output_shapes"
    value {
      list {
        shape {
          dim {
            size: -1
          }
        }
      }
    }
  }
}
node {
  name: "dnn/input_from_feature_columns/input_layer/d0_embedding/d0_embedding_weights/embedding_lookup_sparse/Unique"
  op: "Unique"
  input: "dnn/input_from_feature_columns/input_layer/d0_embedding/d0_embedding_weights/SparseFillEmptyRows/SparseFillEmptyRows:1"
  attr {
    key: "T"
    value {
      type: DT_INT64
    }
  }
  attr {
    key: "_output_shapes"
    value {
      list {
        shape {
          dim {
            size: -1
          }
        }
        shape {
          dim {
            size: -1
          }
        }
      }
    }
  }
  attr {
    key: "out_idx"
    value {
      type: DT_INT32
    }
  }
}
node {
  name: "dnn/input_from_feature_columns/input_layer/d0_embedding/d0_embedding_weights/embedding_lookup_sparse/embedding_lookup/axis"
  op: "Const"
  attr {
    key: "_class"
    value {
      list {
        s: "loc:@dnn/input_from_feature_columns/input_layer/d0_embedding/embedding_weights/part_0"
      }
    }
  }
  attr {
    key: "_output_shapes"
    value {
      list {
        shape {
        }
      }
    }
  }
  attr {
    key: "dtype"
    value {
      type: DT_INT32
    }
  }
  attr {
    key: "value"
    value {
      tensor {
        dtype: DT_INT32
        tensor_shape {
        }
        int_val: 0
      }
    }
  }
}
node {
  name: "dnn/input_from_feature_columns/input_layer/d0_embedding/d0_embedding_weights/embedding_lookup_sparse/embedding_lookup"
  op: "GatherV2"
  input: "dnn/input_from_feature_columns/input_layer/d0_embedding/embedding_weights/part_0/read"
  input: "dnn/input_from_feature_columns/input_layer/d0_embedding/d0_embedding_weights/embedding_lookup_sparse/Unique"
  input: "dnn/input_from_feature_columns/input_layer/d0_embedding/d0_embedding_weights/embedding_lookup_sparse/embedding_lookup/axis"
  attr {
    key: "Taxis"
    value {
      type: DT_INT32
    }
  }
  attr {
    key: "Tindices"
    value {
      type: DT_INT64
    }
  }
  attr {
    key: "Tparams"
    value {
      type: DT_FLOAT
    }
  }
  attr {
    key: "_class"
    value {
      list {
        s: "loc:@dnn/input_from_feature_columns/input_layer/d0_embedding/embedding_weights/part_0"
      }
    }
  }
  attr {
    key: "_output_shapes"
    value {
      list {
        shape {
          dim {
            size: -1
          }
          dim {
            size: 8
          }
        }
      }
    }
  }
}
node {
  name: "dnn/input_from_feature_columns/input_layer/d0_embedding/d0_embedding_weights/embedding_lookup_sparse/embedding_lookup/Identity"
  op: "Identity"
  input: "dnn/input_from_feature_columns/input_layer/d0_embedding/d0_embedding_weights/embedding_lookup_sparse/embedding_lookup"
  attr {
    key: "T"
    value {
      type: DT_FLOAT
    }
  }
  attr {
    key: "_output_shapes"
    value {
      list {
        shape {
          dim {
            size: -1
          }
          dim {
            size: 8
          }
        }
      }
    }
  }
}
node {
  name: "dnn/input_from_feature_columns/input_layer/d0_embedding/d0_embedding_weights/embedding_lookup_sparse"
  op: "SparseSegmentMean"
  input: "dnn/input_from_feature_columns/input_layer/d0_embedding/d0_embedding_weights/embedding_lookup_sparse/embedding_lookup/Identity"
  input: "dnn/input_from_feature_columns/input_layer/d0_embedding/d0_embedding_weights/embedding_lookup_sparse/Unique:1"
  input: "dnn/input_from_feature_columns/input_layer/d0_embedding/d0_embedding_weights/embedding_lookup_sparse/Cast"
  attr {
    key: "T"
    value {
      type: DT_FLOAT
    }
  }
  attr {
    key: "Tidx"
    value {
      type: DT_INT32
    }
  }
  attr {
    key: "_output_shapes"
    value {
      list {
        shape {
          dim {
            size: -1
          }
          dim {
            size: 8
          }
        }
      }
    }
  }
}
node {
  name: "dnn/input_from_feature_columns/input_layer/d0_embedding/d0_embedding_weights/Reshape_1/shape"
  op: "Const"
  attr {
    key: "_output_shapes"
    value {
      list {
        shape {
          dim {
            size: 2
          }
        }
      }
    }
  }
  attr {
    key: "dtype"
    value {
      type: DT_INT32
    }
  }
  attr {
    key: "value"
    value {
      tensor {
        dtype: DT_INT32
        tensor_shape {
          dim {
            size: 2
          }
        }
        tensor_content: "\377\377\377\377\001\000\000\000"
      }
    }
  }
}
node {
  name: "dnn/input_from_feature_columns/input_layer/d0_embedding/d0_embedding_weights/Reshape_1"
  op: "Reshape"
  input: "dnn/input_from_feature_columns/input_layer/d0_embedding/d0_embedding_weights/SparseFillEmptyRows/SparseFillEmptyRows:2"
  input: "dnn/input_from_feature_columns/input_layer/d0_embedding/d0_embedding_weights/Reshape_1/shape"
  attr {
    key: "T"
    value {
      type: DT_BOOL
    }
  }
  attr {
    key: "Tshape"
    value {
      type: DT_INT32
    }
  }
  attr {
    key: "_output_shapes"
    value {
      list {
        shape {
          dim {
            size: -1
          }
          dim {
            size: 1
          }
        }
      }
    }
  }
}
node {
  name: "dnn/input_from_feature_columns/input_layer/d0_embedding/d0_embedding_weights/Shape"
  op: "Shape"
  input: "dnn/input_from_feature_columns/input_layer/d0_embedding/d0_embedding_weights/embedding_lookup_sparse"
  attr {
    key: "T"
    value {
      type: DT_FLOAT
    }
  }
  attr {
    key: "_output_shapes"
    value {
      list {
        shape {
          dim {
            size: 2
          }
        }
      }
    }
  }
  attr {
    key: "out_type"
    value {
      type: DT_INT32
    }
  }
}
node {
  name: "dnn/input_from_feature_columns/input_layer/d0_embedding/d0_embedding_weights/strided_slice/stack"
  op: "Const"
  attr {
    key: "_output_shapes"
    value {
      list {
        shape {
          dim {
            size: 1
          }
        }
      }
    }
  }
  attr {
    key: "dtype"
    value {
      type: DT_INT32
    }
  }
  attr {
    key: "value"
    value {
      tensor {
        dtype: DT_INT32
        tensor_shape {
          dim {
            size: 1
          }
        }
        int_val: 1
      }
    }
  }
}
node {
  name: "dnn/input_from_feature_columns/input_layer/d0_embedding/d0_embedding_weights/strided_slice/stack_1"
  op: "Const"
  attr {
    key: "_output_shapes"
    value {
      list {
        shape {
          dim {
            size: 1
          }
        }
      }
    }
  }
  attr {
    key: "dtype"
    value {
      type: DT_INT32
    }
  }
  attr {
    key: "value"
    value {
      tensor {
        dtype: DT_INT32
        tensor_shape {
          dim {
            size: 1
          }
        }
        int_val: 2
      }
    }
  }
}
node {
  name: "dnn/input_from_feature_columns/input_layer/d0_embedding/d0_embedding_weights/strided_slice/stack_2"
  op: "Const"
  attr {
    key: "_output_shapes"
    value {
      list {
        shape {
          dim {
            size: 1
          }
        }
      }
    }
  }
  attr {
    key: "dtype"
    value {
      type: DT_INT32
    }
  }
  attr {
    key: "value"
    value {
      tensor {
        dtype: DT_INT32
        tensor_shape {
          dim {
            size: 1
          }
        }
        int_val: 1
      }
    }
  }
}
node {
  name: "dnn/input_from_feature_columns/input_layer/d0_embedding/d0_embedding_weights/strided_slice"
  op: "StridedSlice"
  input: "dnn/input_from_feature_columns/input_layer/d0_embedding/d0_embedding_weights/Shape"
  input: "dnn/input_from_feature_columns/input_layer/d0_embedding/d0_embedding_weights/strided_slice/stack"
  input: "dnn/input_from_feature_columns/input_layer/d0_embedding/d0_embedding_weights/strided_slice/stack_1"
  input: "dnn/input_from_feature_columns/input_layer/d0_embedding/d0_embedding_weights/strided_slice/stack_2"
  attr {
    key: "Index"
    value {
      type: DT_INT32
    }
  }
  attr {
    key: "T"
    value {
      type: DT_INT32
    }
  }
  attr {
    key: "_output_shapes"
    value {
      list {
        shape {
        }
      }
    }
  }
  attr {
    key: "begin_mask"
    value {
      i: 0
    }
  }
  attr {
    key: "ellipsis_mask"
    value {
      i: 0
    }
  }
  attr {
    key: "end_mask"
    value {
      i: 0
    }
  }
  attr {
    key: "new_axis_mask"
    value {
      i: 0
    }
  }
  attr {
    key: "shrink_axis_mask"
    value {
      i: 1
    }
  }
}
node {
  name: "dnn/input_from_feature_columns/input_layer/d0_embedding/d0_embedding_weights/stack/0"
  op: "Const"
  attr {
    key: "_output_shapes"
    value {
      list {
        shape {
        }
      }
    }
  }
  attr {
    key: "dtype"
    value {
      type: DT_INT32
    }
  }
  attr {
    key: "value"
    value {
      tensor {
        dtype: DT_INT32
        tensor_shape {
        }
        int_val: 1
      }
    }
  }
}
node {
  name: "dnn/input_from_feature_columns/input_layer/d0_embedding/d0_embedding_weights/stack"
  op: "Pack"
  input: "dnn/input_from_feature_columns/input_layer/d0_embedding/d0_embedding_weights/stack/0"
  input: "dnn/input_from_feature_columns/input_layer/d0_embedding/d0_embedding_weights/strided_slice"
  attr {
    key: "N"
    value {
      i: 2
    }
  }
  attr {
    key: "T"
    value {
      type: DT_INT32
    }
  }
  attr {
    key: "_output_shapes"
    value {
      list {
        shape {
          dim {
            size: 2
          }
        }
      }
    }
  }
  attr {
    key: "axis"
    value {
      i: 0
    }
  }
}
node {
  name: "dnn/input_from_feature_columns/input_layer/d0_embedding/d0_embedding_weights/Tile"
  op: "Tile"
  input: "dnn/input_from_feature_columns/input_layer/d0_embedding/d0_embedding_weights/Reshape_1"
  input: "dnn/input_from_feature_columns/input_layer/d0_embedding/d0_embedding_weights/stack"
  attr {
    key: "T"
    value {
      type: DT_BOOL
    }
  }
  attr {
    key: "Tmultiples"
    value {
      type: DT_INT32
    }
  }
  attr {
    key: "_output_shapes"
    value {
      list {
        shape {
          dim {
            size: -1
          }
          dim {
            size: -1
          }
        }
      }
    }
  }
}
node {
  name: "dnn/input_from_feature_columns/input_layer/d0_embedding/d0_embedding_weights/zeros_like"
  op: "ZerosLike"
  input: "dnn/input_from_feature_columns/input_layer/d0_embedding/d0_embedding_weights/embedding_lookup_sparse"
  attr {
    key: "T"
    value {
      type: DT_FLOAT
    }
  }
  attr {
    key: "_output_shapes"
    value {
      list {
        shape {
          dim {
            size: -1
          }
          dim {
            size: 8
          }
        }
      }
    }
  }
}
node {
  name: "dnn/input_from_feature_columns/input_layer/d0_embedding/d0_embedding_weights"
  op: "Select"
  input: "dnn/input_from_feature_columns/input_layer/d0_embedding/d0_embedding_weights/Tile"
  input: "dnn/input_from_feature_columns/input_layer/d0_embedding/d0_embedding_weights/zeros_like"
  input: "dnn/input_from_feature_columns/input_layer/d0_embedding/d0_embedding_weights/embedding_lookup_sparse"
  attr {
    key: "T"
    value {
      type: DT_FLOAT
    }
  }
  attr {
    key: "_output_shapes"
    value {
      list {
        shape {
          dim {
            size: -1
          }
          dim {
            size: 8
          }
        }
      }
    }
  }
}
node {
  name: "dnn/input_from_feature_columns/input_layer/d0_embedding/d0_embedding_weights/Cast_1"
  op: "Cast"
  input: "dnn/input_from_feature_columns/input_layer/d0_embedding/to_sparse_input/dense_shape"
  attr {
    key: "DstT"
    value {
      type: DT_INT32
    }
  }
  attr {
    key: "SrcT"
    value {
      type: DT_INT64
    }
  }
  attr {
    key: "Truncate"
    value {
      b: false
    }
  }
  attr {
    key: "_output_shapes"
    value {
      list {
        shape {
          dim {
            size: 2
          }
        }
      }
    }
  }
}
node {
  name: "dnn/input_from_feature_columns/input_layer/d0_embedding/d0_embedding_weights/Slice_1/begin"
  op: "Const"
  attr {
    key: "_output_shapes"
    value {
      list {
        shape {
          dim {
            size: 1
          }
        }
      }
    }
  }
  attr {
    key: "dtype"
    value {
      type: DT_INT32
    }
  }
  attr {
    key: "value"
    value {
      tensor {
        dtype: DT_INT32
        tensor_shape {
          dim {
            size: 1
          }
        }
        int_val: 0
      }
    }
  }
}
node {
  name: "dnn/input_from_feature_columns/input_layer/d0_embedding/d0_embedding_weights/Slice_1/size"
  op: "Const"
  attr {
    key: "_output_shapes"
    value {
      list {
        shape {
          dim {
            size: 1
          }
        }
      }
    }
  }
  attr {
    key: "dtype"
    value {
      type: DT_INT32
    }
  }
  attr {
    key: "value"
    value {
      tensor {
        dtype: DT_INT32
        tensor_shape {
          dim {
            size: 1
          }
        }
        int_val: 1
      }
    }
  }
}
node {
  name: "dnn/input_from_feature_columns/input_layer/d0_embedding/d0_embedding_weights/Slice_1"
  op: "Slice"
  input: "dnn/input_from_feature_columns/input_layer/d0_embedding/d0_embedding_weights/Cast_1"
  input: "dnn/input_from_feature_columns/input_layer/d0_embedding/d0_embedding_weights/Slice_1/begin"
  input: "dnn/input_from_feature_columns/input_layer/d0_embedding/d0_embedding_weights/Slice_1/size"
  attr {
    key: "Index"
    value {
      type: DT_INT32
    }
  }
  attr {
    key: "T"
    value {
      type: DT_INT32
    }
  }
  attr {
    key: "_output_shapes"
    value {
      list {
        shape {
          dim {
            size: 1
          }
        }
      }
    }
  }
}
node {
  name: "dnn/input_from_feature_columns/input_layer/d0_embedding/d0_embedding_weights/Shape_1"
  op: "Shape"
  input: "dnn/input_from_feature_columns/input_layer/d0_embedding/d0_embedding_weights"
  attr {
    key: "T"
    value {
      type: DT_FLOAT
    }
  }
  attr {
    key: "_output_shapes"
    value {
      list {
        shape {
          dim {
            size: 2
          }
        }
      }
    }
  }
  attr {
    key: "out_type"
    value {
      type: DT_INT32
    }
  }
}
node {
  name: "dnn/input_from_feature_columns/input_layer/d0_embedding/d0_embedding_weights/Slice_2/begin"
  op: "Const"
  attr {
    key: "_output_shapes"
    value {
      list {
        shape {
          dim {
            size: 1
          }
        }
      }
    }
  }
  attr {
    key: "dtype"
    value {
      type: DT_INT32
    }
  }
  attr {
    key: "value"
    value {
      tensor {
        dtype: DT_INT32
        tensor_shape {
          dim {
            size: 1
          }
        }
        int_val: 1
      }
    }
  }
}
node {
  name: "dnn/input_from_feature_columns/input_layer/d0_embedding/d0_embedding_weights/Slice_2/size"
  op: "Const"
  attr {
    key: "_output_shapes"
    value {
      list {
        shape {
          dim {
            size: 1
          }
        }
      }
    }
  }
  attr {
    key: "dtype"
    value {
      type: DT_INT32
    }
  }
  attr {
    key: "value"
    value {
      tensor {
        dtype: DT_INT32
        tensor_shape {
          dim {
            size: 1
          }
        }
        int_val: -1
      }
    }
  }
}
node {
  name: "dnn/input_from_feature_columns/input_layer/d0_embedding/d0_embedding_weights/Slice_2"
  op: "Slice"
  input: "dnn/input_from_feature_columns/input_layer/d0_embedding/d0_embedding_weights/Shape_1"
  input: "dnn/input_from_feature_columns/input_layer/d0_embedding/d0_embedding_weights/Slice_2/begin"
  input: "dnn/input_from_feature_columns/input_layer/d0_embedding/d0_embedding_weights/Slice_2/size"
  attr {
    key: "Index"
    value {
      type: DT_INT32
    }
  }
  attr {
    key: "T"
    value {
      type: DT_INT32
    }
  }
  attr {
    key: "_output_shapes"
    value {
      list {
        shape {
          dim {
            size: 1
          }
        }
      }
    }
  }
}
node {
  name: "dnn/input_from_feature_columns/input_layer/d0_embedding/d0_embedding_weights/concat/axis"
  op: "Const"
  attr {
    key: "_output_shapes"
    value {
      list {
        shape {
        }
      }
    }
  }
  attr {
    key: "dtype"
    value {
      type: DT_INT32
    }
  }
  attr {
    key: "value"
    value {
      tensor {
        dtype: DT_INT32
        tensor_shape {
        }
        int_val: 0
      }
    }
  }
}
node {
  name: "dnn/input_from_feature_columns/input_layer/d0_embedding/d0_embedding_weights/concat"
  op: "ConcatV2"
  input: "dnn/input_from_feature_columns/input_layer/d0_embedding/d0_embedding_weights/Slice_1"
  input: "dnn/input_from_feature_columns/input_layer/d0_embedding/d0_embedding_weights/Slice_2"
  input: "dnn/input_from_feature_columns/input_layer/d0_embedding/d0_embedding_weights/concat/axis"
  attr {
    key: "N"
    value {
      i: 2
    }
  }
  attr {
    key: "T"
    value {
      type: DT_INT32
    }
  }
  attr {
    key: "Tidx"
    value {
      type: DT_INT32
    }
  }
  attr {
    key: "_output_shapes"
    value {
      list {
        shape {
          dim {
            size: 2
          }
        }
      }
    }
  }
}
node {
  name: "dnn/input_from_feature_columns/input_layer/d0_embedding/d0_embedding_weights/Reshape_2"
  op: "Reshape"
  input: "dnn/input_from_feature_columns/input_layer/d0_embedding/d0_embedding_weights"
  input: "dnn/input_from_feature_columns/input_layer/d0_embedding/d0_embedding_weights/concat"
  attr {
    key: "T"
    value {
      type: DT_FLOAT
    }
  }
  attr {
    key: "Tshape"
    value {
      type: DT_INT32
    }
  }
  attr {
    key: "_output_shapes"
    value {
      list {
        shape {
          dim {
            size: -1
          }
          dim {
            size: 8
          }
        }
      }
    }
  }
}
node {
  name: "dnn/input_from_feature_columns/input_layer/d0_embedding/Shape"
  op: "Shape"
  input: "dnn/input_from_feature_columns/input_layer/d0_embedding/d0_embedding_weights/Reshape_2"
  attr {
    key: "T"
    value {
      type: DT_FLOAT
    }
  }
  attr {
    key: "_output_shapes"
    value {
      list {
        shape {
          dim {
            size: 2
          }
        }
      }
    }
  }
  attr {
    key: "out_type"
    value {
      type: DT_INT32
    }
  }
}
node {
  name: "dnn/input_from_feature_columns/input_layer/d0_embedding/strided_slice/stack"
  op: "Const"
  attr {
    key: "_output_shapes"
    value {
      list {
        shape {
          dim {
            size: 1
          }
        }
      }
    }
  }
  attr {
    key: "dtype"
    value {
      type: DT_INT32
    }
  }
  attr {
    key: "value"
    value {
      tensor {
        dtype: DT_INT32
        tensor_shape {
          dim {
            size: 1
          }
        }
        int_val: 0
      }
    }
  }
}
node {
  name: "dnn/input_from_feature_columns/input_layer/d0_embedding/strided_slice/stack_1"
  op: "Const"
  attr {
    key: "_output_shapes"
    value {
      list {
        shape {
          dim {
            size: 1
          }
        }
      }
    }
  }
  attr {
    key: "dtype"
    value {
      type: DT_INT32
    }
  }
  attr {
    key: "value"
    value {
      tensor {
        dtype: DT_INT32
        tensor_shape {
          dim {
            size: 1
          }
        }
        int_val: 1
      }
    }
  }
}
node {
  name: "dnn/input_from_feature_columns/input_layer/d0_embedding/strided_slice/stack_2"
  op: "Const"
  attr {
    key: "_output_shapes"
    value {
      list {
        shape {
          dim {
            size: 1
          }
        }
      }
    }
  }
  attr {
    key: "dtype"
    value {
      type: DT_INT32
    }
  }
  attr {
    key: "value"
    value {
      tensor {
        dtype: DT_INT32
        tensor_shape {
          dim {
            size: 1
          }
        }
        int_val: 1
      }
    }
  }
}
node {
  name: "dnn/input_from_feature_columns/input_layer/d0_embedding/strided_slice"
  op: "StridedSlice"
  input: "dnn/input_from_feature_columns/input_layer/d0_embedding/Shape"
  input: "dnn/input_from_feature_columns/input_layer/d0_embedding/strided_slice/stack"
  input: "dnn/input_from_feature_columns/input_layer/d0_embedding/strided_slice/stack_1"
  input: "dnn/input_from_feature_columns/input_layer/d0_embedding/strided_slice/stack_2"
  attr {
    key: "Index"
    value {
      type: DT_INT32
    }
  }
  attr {
    key: "T"
    value {
      type: DT_INT32
    }
  }
  attr {
    key: "_output_shapes"
    value {
      list {
        shape {
        }
      }
    }
  }
  attr {
    key: "begin_mask"
    value {
      i: 0
    }
  }
  attr {
    key: "ellipsis_mask"
    value {
      i: 0
    }
  }
  attr {
    key: "end_mask"
    value {
      i: 0
    }
  }
  attr {
    key: "new_axis_mask"
    value {
      i: 0
    }
  }
  attr {
    key: "shrink_axis_mask"
    value {
      i: 1
    }
  }
}
node {
  name: "dnn/input_from_feature_columns/input_layer/d0_embedding/Reshape/shape/1"
  op: "Const"
  attr {
    key: "_output_shapes"
    value {
      list {
        shape {
        }
      }
    }
  }
  attr {
    key: "dtype"
    value {
      type: DT_INT32
    }
  }
  attr {
    key: "value"
    value {
      tensor {
        dtype: DT_INT32
        tensor_shape {
        }
        int_val: 8
      }
    }
  }
}
node {
  name: "dnn/input_from_feature_columns/input_layer/d0_embedding/Reshape/shape"
  op: "Pack"
  input: "dnn/input_from_feature_columns/input_layer/d0_embedding/strided_slice"
  input: "dnn/input_from_feature_columns/input_layer/d0_embedding/Reshape/shape/1"
  attr {
    key: "N"
    value {
      i: 2
    }
  }
  attr {
    key: "T"
    value {
      type: DT_INT32
    }
  }
  attr {
    key: "_output_shapes"
    value {
      list {
        shape {
          dim {
            size: 2
          }
        }
      }
    }
  }
  attr {
    key: "axis"
    value {
      i: 0
    }
  }
}
node {
  name: "dnn/input_from_feature_columns/input_layer/d0_embedding/Reshape"
  op: "Reshape"
  input: "dnn/input_from_feature_columns/input_layer/d0_embedding/d0_embedding_weights/Reshape_2"
  input: "dnn/input_from_feature_columns/input_layer/d0_embedding/Reshape/shape"
  attr {
    key: "T"
    value {
      type: DT_FLOAT
    }
  }
  attr {
    key: "Tshape"
    value {
      type: DT_INT32
    }
  }
  attr {
    key: "_output_shapes"
    value {
      list {
        shape {
          dim {
            size: -1
          }
          dim {
            size: 8
          }
        }
      }
    }
  }
}
node {
  name: "dnn/input_from_feature_columns/input_layer/d1_embedding/to_sparse_input/ignore_value/x"
  op: "Const"
  attr {
    key: "_output_shapes"
    value {
      list {
        shape {
        }
      }
    }
  }
  attr {
    key: "dtype"
    value {
      type: DT_STRING
    }
  }
  attr {
    key: "value"
    value {
      tensor {
        dtype: DT_STRING
        tensor_shape {
        }
        string_val: ""
      }
    }
  }
}
node {
  name: "dnn/input_from_feature_columns/input_layer/d1_embedding/to_sparse_input/NotEqual"
  op: "NotEqual"
  input: "IteratorGetNext:1"
  input: "dnn/input_from_feature_columns/input_layer/d1_embedding/to_sparse_input/ignore_value/x"
  attr {
    key: "T"
    value {
      type: DT_STRING
    }
  }
  attr {
    key: "_output_shapes"
    value {
      list {
        shape {
          dim {
            size: 26
          }
          dim {
            size: -1
          }
        }
      }
    }
  }
}
node {
  name: "dnn/input_from_feature_columns/input_layer/d1_embedding/to_sparse_input/indices"
  op: "Where"
  input: "dnn/input_from_feature_columns/input_layer/d1_embedding/to_sparse_input/NotEqual"
  attr {
    key: "T"
    value {
      type: DT_BOOL
    }
  }
  attr {
    key: "_output_shapes"
    value {
      list {
        shape {
          dim {
            size: -1
          }
          dim {
            size: 2
          }
        }
      }
    }
  }
}
node {
  name: "dnn/input_from_feature_columns/input_layer/d1_embedding/to_sparse_input/values"
  op: "GatherNd"
  input: "IteratorGetNext:1"
  input: "dnn/input_from_feature_columns/input_layer/d1_embedding/to_sparse_input/indices"
  attr {
    key: "Tindices"
    value {
      type: DT_INT64
    }
  }
  attr {
    key: "Tparams"
    value {
      type: DT_STRING
    }
  }
  attr {
    key: "_output_shapes"
    value {
      list {
        shape {
          dim {
            size: -1
          }
        }
      }
    }
  }
}
node {
  name: "dnn/input_from_feature_columns/input_layer/d1_embedding/to_sparse_input/dense_shape"
  op: "Shape"
  input: "IteratorGetNext:1"
  attr {
    key: "T"
    value {
      type: DT_STRING
    }
  }
  attr {
    key: "_output_shapes"
    value {
      list {
        shape {
          dim {
            size: 2
          }
        }
      }
    }
  }
  attr {
    key: "out_type"
    value {
      type: DT_INT64
    }
  }
}
node {
  name: "dnn/input_from_feature_columns/input_layer/d1_embedding/lookup"
  op: "StringToHashBucketFast"
  input: "dnn/input_from_feature_columns/input_layer/d1_embedding/to_sparse_input/values"
  attr {
    key: "_output_shapes"
    value {
      list {
        shape {
          dim {
            size: -1
          }
        }
      }
    }
  }
  attr {
    key: "num_buckets"
    value {
      i: 3000
    }
  }
}
node {
  name: "dnn/input_from_feature_columns/input_layer/d1_embedding/embedding_weights/part_0/Initializer/truncated_normal/shape"
  op: "Const"
  attr {
    key: "_class"
    value {
      list {
        s: "loc:@dnn/input_from_feature_columns/input_layer/d1_embedding/embedding_weights/part_0"
      }
    }
  }
  attr {
    key: "_output_shapes"
    value {
      list {
        shape {
          dim {
            size: 2
          }
        }
      }
    }
  }
  attr {
    key: "dtype"
    value {
      type: DT_INT32
    }
  }
  attr {
    key: "value"
    value {
      tensor {
        dtype: DT_INT32
        tensor_shape {
          dim {
            size: 2
          }
        }
        tensor_content: "\270\013\000\000\010\000\000\000"
      }
    }
  }
}
node {
  name: "dnn/input_from_feature_columns/input_layer/d1_embedding/embedding_weights/part_0/Initializer/truncated_normal/mean"
  op: "Const"
  attr {
    key: "_class"
    value {
      list {
        s: "loc:@dnn/input_from_feature_columns/input_layer/d1_embedding/embedding_weights/part_0"
      }
    }
  }
  attr {
    key: "_output_shapes"
    value {
      list {
        shape {
        }
      }
    }
  }
  attr {
    key: "dtype"
    value {
      type: DT_FLOAT
    }
  }
  attr {
    key: "value"
    value {
      tensor {
        dtype: DT_FLOAT
        tensor_shape {
        }
        float_val: 0.0
      }
    }
  }
}
node {
  name: "dnn/input_from_feature_columns/input_layer/d1_embedding/embedding_weights/part_0/Initializer/truncated_normal/stddev"
  op: "Const"
  attr {
    key: "_class"
    value {
      list {
        s: "loc:@dnn/input_from_feature_columns/input_layer/d1_embedding/embedding_weights/part_0"
      }
    }
  }
  attr {
    key: "_output_shapes"
    value {
      list {
        shape {
        }
      }
    }
  }
  attr {
    key: "dtype"
    value {
      type: DT_FLOAT
    }
  }
  attr {
    key: "value"
    value {
      tensor {
        dtype: DT_FLOAT
        tensor_shape {
        }
        float_val: 0.3535533845424652
      }
    }
  }
}
node {
  name: "dnn/input_from_feature_columns/input_layer/d1_embedding/embedding_weights/part_0/Initializer/truncated_normal/TruncatedNormal"
  op: "TruncatedNormal"
  input: "dnn/input_from_feature_columns/input_layer/d1_embedding/embedding_weights/part_0/Initializer/truncated_normal/shape"
  attr {
    key: "T"
    value {
      type: DT_INT32
    }
  }
  attr {
    key: "_class"
    value {
      list {
        s: "loc:@dnn/input_from_feature_columns/input_layer/d1_embedding/embedding_weights/part_0"
      }
    }
  }
  attr {
    key: "_output_shapes"
    value {
      list {
        shape {
          dim {
            size: 3000
          }
          dim {
            size: 8
          }
        }
      }
    }
  }
  attr {
    key: "dtype"
    value {
      type: DT_FLOAT
    }
  }
  attr {
    key: "seed"
    value {
      i: 0
    }
  }
  attr {
    key: "seed2"
    value {
      i: 0
    }
  }
}
node {
  name: "dnn/input_from_feature_columns/input_layer/d1_embedding/embedding_weights/part_0/Initializer/truncated_normal/mul"
  op: "Mul"
  input: "dnn/input_from_feature_columns/input_layer/d1_embedding/embedding_weights/part_0/Initializer/truncated_normal/TruncatedNormal"
  input: "dnn/input_from_feature_columns/input_layer/d1_embedding/embedding_weights/part_0/Initializer/truncated_normal/stddev"
  attr {
    key: "T"
    value {
      type: DT_FLOAT
    }
  }
  attr {
    key: "_class"
    value {
      list {
        s: "loc:@dnn/input_from_feature_columns/input_layer/d1_embedding/embedding_weights/part_0"
      }
    }
  }
  attr {
    key: "_output_shapes"
    value {
      list {
        shape {
          dim {
            size: 3000
          }
          dim {
            size: 8
          }
        }
      }
    }
  }
}
node {
  name: "dnn/input_from_feature_columns/input_layer/d1_embedding/embedding_weights/part_0/Initializer/truncated_normal"
  op: "Add"
  input: "dnn/input_from_feature_columns/input_layer/d1_embedding/embedding_weights/part_0/Initializer/truncated_normal/mul"
  input: "dnn/input_from_feature_columns/input_layer/d1_embedding/embedding_weights/part_0/Initializer/truncated_normal/mean"
  attr {
    key: "T"
    value {
      type: DT_FLOAT
    }
  }
  attr {
    key: "_class"
    value {
      list {
        s: "loc:@dnn/input_from_feature_columns/input_layer/d1_embedding/embedding_weights/part_0"
      }
    }
  }
  attr {
    key: "_output_shapes"
    value {
      list {
        shape {
          dim {
            size: 3000
          }
          dim {
            size: 8
          }
        }
      }
    }
  }
}
node {
  name: "dnn/input_from_feature_columns/input_layer/d1_embedding/embedding_weights/part_0"
  op: "VariableV2"
  attr {
    key: "_class"
    value {
      list {
        s: "loc:@dnn/input_from_feature_columns/input_layer/d1_embedding/embedding_weights/part_0"
      }
    }
  }
  attr {
    key: "_output_shapes"
    value {
      list {
        shape {
          dim {
            size: 3000
          }
          dim {
            size: 8
          }
        }
      }
    }
  }
  attr {
    key: "container"
    value {
      s: ""
    }
  }
  attr {
    key: "dtype"
    value {
      type: DT_FLOAT
    }
  }
  attr {
    key: "shape"
    value {
      shape {
        dim {
          size: 3000
        }
        dim {
          size: 8
        }
      }
    }
  }
  attr {
    key: "shared_name"
    value {
      s: ""
    }
  }
}
node {
  name: "dnn/input_from_feature_columns/input_layer/d1_embedding/embedding_weights/part_0/Assign"
  op: "Assign"
  input: "dnn/input_from_feature_columns/input_layer/d1_embedding/embedding_weights/part_0"
  input: "dnn/input_from_feature_columns/input_layer/d1_embedding/embedding_weights/part_0/Initializer/truncated_normal"
  attr {
    key: "T"
    value {
      type: DT_FLOAT
    }
  }
  attr {
    key: "_class"
    value {
      list {
        s: "loc:@dnn/input_from_feature_columns/input_layer/d1_embedding/embedding_weights/part_0"
      }
    }
  }
  attr {
    key: "_output_shapes"
    value {
      list {
        shape {
          dim {
            size: 3000
          }
          dim {
            size: 8
          }
        }
      }
    }
  }
  attr {
    key: "use_locking"
    value {
      b: true
    }
  }
  attr {
    key: "validate_shape"
    value {
      b: true
    }
  }
}
node {
  name: "dnn/input_from_feature_columns/input_layer/d1_embedding/embedding_weights/part_0/read"
  op: "Identity"
  input: "dnn/input_from_feature_columns/input_layer/d1_embedding/embedding_weights/part_0"
  attr {
    key: "T"
    value {
      type: DT_FLOAT
    }
  }
  attr {
    key: "_class"
    value {
      list {
        s: "loc:@dnn/input_from_feature_columns/input_layer/d1_embedding/embedding_weights/part_0"
      }
    }
  }
  attr {
    key: "_output_shapes"
    value {
      list {
        shape {
          dim {
            size: 3000
          }
          dim {
            size: 8
          }
        }
      }
    }
  }
}
node {
  name: "dnn/input_from_feature_columns/input_layer/d1_embedding/d1_embedding_weights/Slice/begin"
  op: "Const"
  attr {
    key: "_output_shapes"
    value {
      list {
        shape {
          dim {
            size: 1
          }
        }
      }
    }
  }
  attr {
    key: "dtype"
    value {
      type: DT_INT32
    }
  }
  attr {
    key: "value"
    value {
      tensor {
        dtype: DT_INT32
        tensor_shape {
          dim {
            size: 1
          }
        }
        int_val: 0
      }
    }
  }
}
node {
  name: "dnn/input_from_feature_columns/input_layer/d1_embedding/d1_embedding_weights/Slice/size"
  op: "Const"
  attr {
    key: "_output_shapes"
    value {
      list {
        shape {
          dim {
            size: 1
          }
        }
      }
    }
  }
  attr {
    key: "dtype"
    value {
      type: DT_INT32
    }
  }
  attr {
    key: "value"
    value {
      tensor {
        dtype: DT_INT32
        tensor_shape {
          dim {
            size: 1
          }
        }
        int_val: 1
      }
    }
  }
}
node {
  name: "dnn/input_from_feature_columns/input_layer/d1_embedding/d1_embedding_weights/Slice"
  op: "Slice"
  input: "dnn/input_from_feature_columns/input_layer/d1_embedding/to_sparse_input/dense_shape"
  input: "dnn/input_from_feature_columns/input_layer/d1_embedding/d1_embedding_weights/Slice/begin"
  input: "dnn/input_from_feature_columns/input_layer/d1_embedding/d1_embedding_weights/Slice/size"
  attr {
    key: "Index"
    value {
      type: DT_INT32
    }
  }
  attr {
    key: "T"
    value {
      type: DT_INT64
    }
  }
  attr {
    key: "_output_shapes"
    value {
      list {
        shape {
          dim {
            size: 1
          }
        }
      }
    }
  }
}
node {
  name: "dnn/input_from_feature_columns/input_layer/d1_embedding/d1_embedding_weights/Const"
  op: "Const"
  attr {
    key: "_output_shapes"
    value {
      list {
        shape {
          dim {
            size: 1
          }
        }
      }
    }
  }
  attr {
    key: "dtype"
    value {
      type: DT_INT32
    }
  }
  attr {
    key: "value"
    value {
      tensor {
        dtype: DT_INT32
        tensor_shape {
          dim {
            size: 1
          }
        }
        int_val: 0
      }
    }
  }
}
node {
  name: "dnn/input_from_feature_columns/input_layer/d1_embedding/d1_embedding_weights/Prod"
  op: "Prod"
  input: "dnn/input_from_feature_columns/input_layer/d1_embedding/d1_embedding_weights/Slice"
  input: "dnn/input_from_feature_columns/input_layer/d1_embedding/d1_embedding_weights/Const"
  attr {
    key: "T"
    value {
      type: DT_INT64
    }
  }
  attr {
    key: "Tidx"
    value {
      type: DT_INT32
    }
  }
  attr {
    key: "_output_shapes"
    value {
      list {
        shape {
        }
      }
    }
  }
  attr {
    key: "keep_dims"
    value {
      b: false
    }
  }
}
node {
  name: "dnn/input_from_feature_columns/input_layer/d1_embedding/d1_embedding_weights/GatherV2/indices"
  op: "Const"
  attr {
    key: "_output_shapes"
    value {
      list {
        shape {
        }
      }
    }
  }
  attr {
    key: "dtype"
    value {
      type: DT_INT32
    }
  }
  attr {
    key: "value"
    value {
      tensor {
        dtype: DT_INT32
        tensor_shape {
        }
        int_val: 1
      }
    }
  }
}
node {
  name: "dnn/input_from_feature_columns/input_layer/d1_embedding/d1_embedding_weights/GatherV2/axis"
  op: "Const"
  attr {
    key: "_output_shapes"
    value {
      list {
        shape {
        }
      }
    }
  }
  attr {
    key: "dtype"
    value {
      type: DT_INT32
    }
  }
  attr {
    key: "value"
    value {
      tensor {
        dtype: DT_INT32
        tensor_shape {
        }
        int_val: 0
      }
    }
  }
}
node {
  name: "dnn/input_from_feature_columns/input_layer/d1_embedding/d1_embedding_weights/GatherV2"
  op: "GatherV2"
  input: "dnn/input_from_feature_columns/input_layer/d1_embedding/to_sparse_input/dense_shape"
  input: "dnn/input_from_feature_columns/input_layer/d1_embedding/d1_embedding_weights/GatherV2/indices"
  input: "dnn/input_from_feature_columns/input_layer/d1_embedding/d1_embedding_weights/GatherV2/axis"
  attr {
    key: "Taxis"
    value {
      type: DT_INT32
    }
  }
  attr {
    key: "Tindices"
    value {
      type: DT_INT32
    }
  }
  attr {
    key: "Tparams"
    value {
      type: DT_INT64
    }
  }
  attr {
    key: "_output_shapes"
    value {
      list {
        shape {
        }
      }
    }
  }
}
node {
  name: "dnn/input_from_feature_columns/input_layer/d1_embedding/d1_embedding_weights/Cast/x"
  op: "Pack"
  input: "dnn/input_from_feature_columns/input_layer/d1_embedding/d1_embedding_weights/Prod"
  input: "dnn/input_from_feature_columns/input_layer/d1_embedding/d1_embedding_weights/GatherV2"
  attr {
    key: "N"
    value {
      i: 2
    }
  }
  attr {
    key: "T"
    value {
      type: DT_INT64
    }
  }
  attr {
    key: "_output_shapes"
    value {
      list {
        shape {
          dim {
            size: 2
          }
        }
      }
    }
  }
  attr {
    key: "axis"
    value {
      i: 0
    }
  }
}
node {
  name: "dnn/input_from_feature_columns/input_layer/d1_embedding/d1_embedding_weights/SparseReshape"
  op: "SparseReshape"
  input: "dnn/input_from_feature_columns/input_layer/d1_embedding/to_sparse_input/indices"
  input: "dnn/input_from_feature_columns/input_layer/d1_embedding/to_sparse_input/dense_shape"
  input: "dnn/input_from_feature_columns/input_layer/d1_embedding/d1_embedding_weights/Cast/x"
  attr {
    key: "_output_shapes"
    value {
      list {
        shape {
          dim {
            size: -1
          }
          dim {
            size: 2
          }
        }
        shape {
          dim {
            size: 2
          }
        }
      }
    }
  }
}
node {
  name: "dnn/input_from_feature_columns/input_layer/d1_embedding/d1_embedding_weights/SparseReshape/Identity"
  op: "Identity"
  input: "dnn/input_from_feature_columns/input_layer/d1_embedding/lookup"
  attr {
    key: "T"
    value {
      type: DT_INT64
    }
  }
  attr {
    key: "_output_shapes"
    value {
      list {
        shape {
          dim {
            size: -1
          }
        }
      }
    }
  }
}
node {
  name: "dnn/input_from_feature_columns/input_layer/d1_embedding/d1_embedding_weights/GreaterEqual/y"
  op: "Const"
  attr {
    key: "_output_shapes"
    value {
      list {
        shape {
        }
      }
    }
  }
  attr {
    key: "dtype"
    value {
      type: DT_INT64
    }
  }
  attr {
    key: "value"
    value {
      tensor {
        dtype: DT_INT64
        tensor_shape {
        }
        int64_val: 0
      }
    }
  }
}
node {
  name: "dnn/input_from_feature_columns/input_layer/d1_embedding/d1_embedding_weights/GreaterEqual"
  op: "GreaterEqual"
  input: "dnn/input_from_feature_columns/input_layer/d1_embedding/d1_embedding_weights/SparseReshape/Identity"
  input: "dnn/input_from_feature_columns/input_layer/d1_embedding/d1_embedding_weights/GreaterEqual/y"
  attr {
    key: "T"
    value {
      type: DT_INT64
    }
  }
  attr {
    key: "_output_shapes"
    value {
      list {
        shape {
          dim {
            size: -1
          }
        }
      }
    }
  }
}
node {
  name: "dnn/input_from_feature_columns/input_layer/d1_embedding/d1_embedding_weights/Where"
  op: "Where"
  input: "dnn/input_from_feature_columns/input_layer/d1_embedding/d1_embedding_weights/GreaterEqual"
  attr {
    key: "T"
    value {
      type: DT_BOOL
    }
  }
  attr {
    key: "_output_shapes"
    value {
      list {
        shape {
          dim {
            size: -1
          }
          dim {
            size: 1
          }
        }
      }
    }
  }
}
node {
  name: "dnn/input_from_feature_columns/input_layer/d1_embedding/d1_embedding_weights/Reshape/shape"
  op: "Const"
  attr {
    key: "_output_shapes"
    value {
      list {
        shape {
          dim {
            size: 1
          }
        }
      }
    }
  }
  attr {
    key: "dtype"
    value {
      type: DT_INT32
    }
  }
  attr {
    key: "value"
    value {
      tensor {
        dtype: DT_INT32
        tensor_shape {
          dim {
            size: 1
          }
        }
        int_val: -1
      }
    }
  }
}
node {
  name: "dnn/input_from_feature_columns/input_layer/d1_embedding/d1_embedding_weights/Reshape"
  op: "Reshape"
  input: "dnn/input_from_feature_columns/input_layer/d1_embedding/d1_embedding_weights/Where"
  input: "dnn/input_from_feature_columns/input_layer/d1_embedding/d1_embedding_weights/Reshape/shape"
  attr {
    key: "T"
    value {
      type: DT_INT64
    }
  }
  attr {
    key: "Tshape"
    value {
      type: DT_INT32
    }
  }
  attr {
    key: "_output_shapes"
    value {
      list {
        shape {
          dim {
            size: -1
          }
        }
      }
    }
  }
}
node {
  name: "dnn/input_from_feature_columns/input_layer/d1_embedding/d1_embedding_weights/GatherV2_1/axis"
  op: "Const"
  attr {
    key: "_output_shapes"
    value {
      list {
        shape {
        }
      }
    }
  }
  attr {
    key: "dtype"
    value {
      type: DT_INT32
    }
  }
  attr {
    key: "value"
    value {
      tensor {
        dtype: DT_INT32
        tensor_shape {
        }
        int_val: 0
      }
    }
  }
}
node {
  name: "dnn/input_from_feature_columns/input_layer/d1_embedding/d1_embedding_weights/GatherV2_1"
  op: "GatherV2"
  input: "dnn/input_from_feature_columns/input_layer/d1_embedding/d1_embedding_weights/SparseReshape"
  input: "dnn/input_from_feature_columns/input_layer/d1_embedding/d1_embedding_weights/Reshape"
  input: "dnn/input_from_feature_columns/input_layer/d1_embedding/d1_embedding_weights/GatherV2_1/axis"
  attr {
    key: "Taxis"
    value {
      type: DT_INT32
    }
  }
  attr {
    key: "Tindices"
    value {
      type: DT_INT64
    }
  }
  attr {
    key: "Tparams"
    value {
      type: DT_INT64
    }
  }
  attr {
    key: "_output_shapes"
    value {
      list {
        shape {
          dim {
            size: -1
          }
          dim {
            size: 2
          }
        }
      }
    }
  }
}
node {
  name: "dnn/input_from_feature_columns/input_layer/d1_embedding/d1_embedding_weights/GatherV2_2/axis"
  op: "Const"
  attr {
    key: "_output_shapes"
    value {
      list {
        shape {
        }
      }
    }
  }
  attr {
    key: "dtype"
    value {
      type: DT_INT32
    }
  }
  attr {
    key: "value"
    value {
      tensor {
        dtype: DT_INT32
        tensor_shape {
        }
        int_val: 0
      }
    }
  }
}
node {
  name: "dnn/input_from_feature_columns/input_layer/d1_embedding/d1_embedding_weights/GatherV2_2"
  op: "GatherV2"
  input: "dnn/input_from_feature_columns/input_layer/d1_embedding/d1_embedding_weights/SparseReshape/Identity"
  input: "dnn/input_from_feature_columns/input_layer/d1_embedding/d1_embedding_weights/Reshape"
  input: "dnn/input_from_feature_columns/input_layer/d1_embedding/d1_embedding_weights/GatherV2_2/axis"
  attr {
    key: "Taxis"
    value {
      type: DT_INT32
    }
  }
  attr {
    key: "Tindices"
    value {
      type: DT_INT64
    }
  }
  attr {
    key: "Tparams"
    value {
      type: DT_INT64
    }
  }
  attr {
    key: "_output_shapes"
    value {
      list {
        shape {
          dim {
            size: -1
          }
        }
      }
    }
  }
}
node {
  name: "dnn/input_from_feature_columns/input_layer/d1_embedding/d1_embedding_weights/Identity"
  op: "Identity"
  input: "dnn/input_from_feature_columns/input_layer/d1_embedding/d1_embedding_weights/SparseReshape:1"
  attr {
    key: "T"
    value {
      type: DT_INT64
    }
  }
  attr {
    key: "_output_shapes"
    value {
      list {
        shape {
          dim {
            size: 2
          }
        }
      }
    }
  }
}
node {
  name: "dnn/input_from_feature_columns/input_layer/d1_embedding/d1_embedding_weights/SparseFillEmptyRows/Const"
  op: "Const"
  attr {
    key: "_output_shapes"
    value {
      list {
        shape {
        }
      }
    }
  }
  attr {
    key: "dtype"
    value {
      type: DT_INT64
    }
  }
  attr {
    key: "value"
    value {
      tensor {
        dtype: DT_INT64
        tensor_shape {
        }
        int64_val: 0
      }
    }
  }
}
node {
  name: "dnn/input_from_feature_columns/input_layer/d1_embedding/d1_embedding_weights/SparseFillEmptyRows/SparseFillEmptyRows"
  op: "SparseFillEmptyRows"
  input: "dnn/input_from_feature_columns/input_layer/d1_embedding/d1_embedding_weights/GatherV2_1"
  input: "dnn/input_from_feature_columns/input_layer/d1_embedding/d1_embedding_weights/GatherV2_2"
  input: "dnn/input_from_feature_columns/input_layer/d1_embedding/d1_embedding_weights/Identity"
  input: "dnn/input_from_feature_columns/input_layer/d1_embedding/d1_embedding_weights/SparseFillEmptyRows/Const"
  attr {
    key: "T"
    value {
      type: DT_INT64
    }
  }
  attr {
    key: "_output_shapes"
    value {
      list {
        shape {
          dim {
            size: -1
          }
          dim {
            size: 2
          }
        }
        shape {
          dim {
            size: -1
          }
        }
        shape {
          dim {
            size: -1
          }
        }
        shape {
          dim {
            size: -1
          }
        }
      }
    }
  }
}
node {
  name: "dnn/input_from_feature_columns/input_layer/d1_embedding/d1_embedding_weights/embedding_lookup_sparse/strided_slice/stack"
  op: "Const"
  attr {
    key: "_output_shapes"
    value {
      list {
        shape {
          dim {
            size: 2
          }
        }
      }
    }
  }
  attr {
    key: "dtype"
    value {
      type: DT_INT32
    }
  }
  attr {
    key: "value"
    value {
      tensor {
        dtype: DT_INT32
        tensor_shape {
          dim {
            size: 2
          }
        }
        tensor_content: "\000\000\000\000\000\000\000\000"
      }
    }
  }
}
node {
  name: "dnn/input_from_feature_columns/input_layer/d1_embedding/d1_embedding_weights/embedding_lookup_sparse/strided_slice/stack_1"
  op: "Const"
  attr {
    key: "_output_shapes"
    value {
      list {
        shape {
          dim {
            size: 2
          }
        }
      }
    }
  }
  attr {
    key: "dtype"
    value {
      type: DT_INT32
    }
  }
  attr {
    key: "value"
    value {
      tensor {
        dtype: DT_INT32
        tensor_shape {
          dim {
            size: 2
          }
        }
        tensor_content: "\000\000\000\000\001\000\000\000"
      }
    }
  }
}
node {
  name: "dnn/input_from_feature_columns/input_layer/d1_embedding/d1_embedding_weights/embedding_lookup_sparse/strided_slice/stack_2"
  op: "Const"
  attr {
    key: "_output_shapes"
    value {
      list {
        shape {
          dim {
            size: 2
          }
        }
      }
    }
  }
  attr {
    key: "dtype"
    value {
      type: DT_INT32
    }
  }
  attr {
    key: "value"
    value {
      tensor {
        dtype: DT_INT32
        tensor_shape {
          dim {
            size: 2
          }
        }
        tensor_content: "\001\000\000\000\001\000\000\000"
      }
    }
  }
}
node {
  name: "dnn/input_from_feature_columns/input_layer/d1_embedding/d1_embedding_weights/embedding_lookup_sparse/strided_slice"
  op: "StridedSlice"
  input: "dnn/input_from_feature_columns/input_layer/d1_embedding/d1_embedding_weights/SparseFillEmptyRows/SparseFillEmptyRows"
  input: "dnn/input_from_feature_columns/input_layer/d1_embedding/d1_embedding_weights/embedding_lookup_sparse/strided_slice/stack"
  input: "dnn/input_from_feature_columns/input_layer/d1_embedding/d1_embedding_weights/embedding_lookup_sparse/strided_slice/stack_1"
  input: "dnn/input_from_feature_columns/input_layer/d1_embedding/d1_embedding_weights/embedding_lookup_sparse/strided_slice/stack_2"
  attr {
    key: "Index"
    value {
      type: DT_INT32
    }
  }
  attr {
    key: "T"
    value {
      type: DT_INT64
    }
  }
  attr {
    key: "_output_shapes"
    value {
      list {
        shape {
          dim {
            size: -1
          }
        }
      }
    }
  }
  attr {
    key: "begin_mask"
    value {
      i: 1
    }
  }
  attr {
    key: "ellipsis_mask"
    value {
      i: 0
    }
  }
  attr {
    key: "end_mask"
    value {
      i: 1
    }
  }
  attr {
    key: "new_axis_mask"
    value {
      i: 0
    }
  }
  attr {
    key: "shrink_axis_mask"
    value {
      i: 2
    }
  }
}
node {
  name: "dnn/input_from_feature_columns/input_layer/d1_embedding/d1_embedding_weights/embedding_lookup_sparse/Cast"
  op: "Cast"
  input: "dnn/input_from_feature_columns/input_layer/d1_embedding/d1_embedding_weights/embedding_lookup_sparse/strided_slice"
  attr {
    key: "DstT"
    value {
      type: DT_INT32
    }
  }
  attr {
    key: "SrcT"
    value {
      type: DT_INT64
    }
  }
  attr {
    key: "Truncate"
    value {
      b: false
    }
  }
  attr {
    key: "_output_shapes"
    value {
      list {
        shape {
          dim {
            size: -1
          }
        }
      }
    }
  }
}
node {
  name: "dnn/input_from_feature_columns/input_layer/d1_embedding/d1_embedding_weights/embedding_lookup_sparse/Unique"
  op: "Unique"
  input: "dnn/input_from_feature_columns/input_layer/d1_embedding/d1_embedding_weights/SparseFillEmptyRows/SparseFillEmptyRows:1"
  attr {
    key: "T"
    value {
      type: DT_INT64
    }
  }
  attr {
    key: "_output_shapes"
    value {
      list {
        shape {
          dim {
            size: -1
          }
        }
        shape {
          dim {
            size: -1
          }
        }
      }
    }
  }
  attr {
    key: "out_idx"
    value {
      type: DT_INT32
    }
  }
}
node {
  name: "dnn/input_from_feature_columns/input_layer/d1_embedding/d1_embedding_weights/embedding_lookup_sparse/embedding_lookup/axis"
  op: "Const"
  attr {
    key: "_class"
    value {
      list {
        s: "loc:@dnn/input_from_feature_columns/input_layer/d1_embedding/embedding_weights/part_0"
      }
    }
  }
  attr {
    key: "_output_shapes"
    value {
      list {
        shape {
        }
      }
    }
  }
  attr {
    key: "dtype"
    value {
      type: DT_INT32
    }
  }
  attr {
    key: "value"
    value {
      tensor {
        dtype: DT_INT32
        tensor_shape {
        }
        int_val: 0
      }
    }
  }
}
node {
  name: "dnn/input_from_feature_columns/input_layer/d1_embedding/d1_embedding_weights/embedding_lookup_sparse/embedding_lookup"
  op: "GatherV2"
  input: "dnn/input_from_feature_columns/input_layer/d1_embedding/embedding_weights/part_0/read"
  input: "dnn/input_from_feature_columns/input_layer/d1_embedding/d1_embedding_weights/embedding_lookup_sparse/Unique"
  input: "dnn/input_from_feature_columns/input_layer/d1_embedding/d1_embedding_weights/embedding_lookup_sparse/embedding_lookup/axis"
  attr {
    key: "Taxis"
    value {
      type: DT_INT32
    }
  }
  attr {
    key: "Tindices"
    value {
      type: DT_INT64
    }
  }
  attr {
    key: "Tparams"
    value {
      type: DT_FLOAT
    }
  }
  attr {
    key: "_class"
    value {
      list {
        s: "loc:@dnn/input_from_feature_columns/input_layer/d1_embedding/embedding_weights/part_0"
      }
    }
  }
  attr {
    key: "_output_shapes"
    value {
      list {
        shape {
          dim {
            size: -1
          }
          dim {
            size: 8
          }
        }
      }
    }
  }
}
node {
  name: "dnn/input_from_feature_columns/input_layer/d1_embedding/d1_embedding_weights/embedding_lookup_sparse/embedding_lookup/Identity"
  op: "Identity"
  input: "dnn/input_from_feature_columns/input_layer/d1_embedding/d1_embedding_weights/embedding_lookup_sparse/embedding_lookup"
  attr {
    key: "T"
    value {
      type: DT_FLOAT
    }
  }
  attr {
    key: "_output_shapes"
    value {
      list {
        shape {
          dim {
            size: -1
          }
          dim {
            size: 8
          }
        }
      }
    }
  }
}
node {
  name: "dnn/input_from_feature_columns/input_layer/d1_embedding/d1_embedding_weights/embedding_lookup_sparse"
  op: "SparseSegmentMean"
  input: "dnn/input_from_feature_columns/input_layer/d1_embedding/d1_embedding_weights/embedding_lookup_sparse/embedding_lookup/Identity"
  input: "dnn/input_from_feature_columns/input_layer/d1_embedding/d1_embedding_weights/embedding_lookup_sparse/Unique:1"
  input: "dnn/input_from_feature_columns/input_layer/d1_embedding/d1_embedding_weights/embedding_lookup_sparse/Cast"
  attr {
    key: "T"
    value {
      type: DT_FLOAT
    }
  }
  attr {
    key: "Tidx"
    value {
      type: DT_INT32
    }
  }
  attr {
    key: "_output_shapes"
    value {
      list {
        shape {
          dim {
            size: -1
          }
          dim {
            size: 8
          }
        }
      }
    }
  }
}
node {
  name: "dnn/input_from_feature_columns/input_layer/d1_embedding/d1_embedding_weights/Reshape_1/shape"
  op: "Const"
  attr {
    key: "_output_shapes"
    value {
      list {
        shape {
          dim {
            size: 2
          }
        }
      }
    }
  }
  attr {
    key: "dtype"
    value {
      type: DT_INT32
    }
  }
  attr {
    key: "value"
    value {
      tensor {
        dtype: DT_INT32
        tensor_shape {
          dim {
            size: 2
          }
        }
        tensor_content: "\377\377\377\377\001\000\000\000"
      }
    }
  }
}
node {
  name: "dnn/input_from_feature_columns/input_layer/d1_embedding/d1_embedding_weights/Reshape_1"
  op: "Reshape"
  input: "dnn/input_from_feature_columns/input_layer/d1_embedding/d1_embedding_weights/SparseFillEmptyRows/SparseFillEmptyRows:2"
  input: "dnn/input_from_feature_columns/input_layer/d1_embedding/d1_embedding_weights/Reshape_1/shape"
  attr {
    key: "T"
    value {
      type: DT_BOOL
    }
  }
  attr {
    key: "Tshape"
    value {
      type: DT_INT32
    }
  }
  attr {
    key: "_output_shapes"
    value {
      list {
        shape {
          dim {
            size: -1
          }
          dim {
            size: 1
          }
        }
      }
    }
  }
}
node {
  name: "dnn/input_from_feature_columns/input_layer/d1_embedding/d1_embedding_weights/Shape"
  op: "Shape"
  input: "dnn/input_from_feature_columns/input_layer/d1_embedding/d1_embedding_weights/embedding_lookup_sparse"
  attr {
    key: "T"
    value {
      type: DT_FLOAT
    }
  }
  attr {
    key: "_output_shapes"
    value {
      list {
        shape {
          dim {
            size: 2
          }
        }
      }
    }
  }
  attr {
    key: "out_type"
    value {
      type: DT_INT32
    }
  }
}
node {
  name: "dnn/input_from_feature_columns/input_layer/d1_embedding/d1_embedding_weights/strided_slice/stack"
  op: "Const"
  attr {
    key: "_output_shapes"
    value {
      list {
        shape {
          dim {
            size: 1
          }
        }
      }
    }
  }
  attr {
    key: "dtype"
    value {
      type: DT_INT32
    }
  }
  attr {
    key: "value"
    value {
      tensor {
        dtype: DT_INT32
        tensor_shape {
          dim {
            size: 1
          }
        }
        int_val: 1
      }
    }
  }
}
node {
  name: "dnn/input_from_feature_columns/input_layer/d1_embedding/d1_embedding_weights/strided_slice/stack_1"
  op: "Const"
  attr {
    key: "_output_shapes"
    value {
      list {
        shape {
          dim {
            size: 1
          }
        }
      }
    }
  }
  attr {
    key: "dtype"
    value {
      type: DT_INT32
    }
  }
  attr {
    key: "value"
    value {
      tensor {
        dtype: DT_INT32
        tensor_shape {
          dim {
            size: 1
          }
        }
        int_val: 2
      }
    }
  }
}
node {
  name: "dnn/input_from_feature_columns/input_layer/d1_embedding/d1_embedding_weights/strided_slice/stack_2"
  op: "Const"
  attr {
    key: "_output_shapes"
    value {
      list {
        shape {
          dim {
            size: 1
          }
        }
      }
    }
  }
  attr {
    key: "dtype"
    value {
      type: DT_INT32
    }
  }
  attr {
    key: "value"
    value {
      tensor {
        dtype: DT_INT32
        tensor_shape {
          dim {
            size: 1
          }
        }
        int_val: 1
      }
    }
  }
}
node {
  name: "dnn/input_from_feature_columns/input_layer/d1_embedding/d1_embedding_weights/strided_slice"
  op: "StridedSlice"
  input: "dnn/input_from_feature_columns/input_layer/d1_embedding/d1_embedding_weights/Shape"
  input: "dnn/input_from_feature_columns/input_layer/d1_embedding/d1_embedding_weights/strided_slice/stack"
  input: "dnn/input_from_feature_columns/input_layer/d1_embedding/d1_embedding_weights/strided_slice/stack_1"
  input: "dnn/input_from_feature_columns/input_layer/d1_embedding/d1_embedding_weights/strided_slice/stack_2"
  attr {
    key: "Index"
    value {
      type: DT_INT32
    }
  }
  attr {
    key: "T"
    value {
      type: DT_INT32
    }
  }
  attr {
    key: "_output_shapes"
    value {
      list {
        shape {
        }
      }
    }
  }
  attr {
    key: "begin_mask"
    value {
      i: 0
    }
  }
  attr {
    key: "ellipsis_mask"
    value {
      i: 0
    }
  }
  attr {
    key: "end_mask"
    value {
      i: 0
    }
  }
  attr {
    key: "new_axis_mask"
    value {
      i: 0
    }
  }
  attr {
    key: "shrink_axis_mask"
    value {
      i: 1
    }
  }
}
node {
  name: "dnn/input_from_feature_columns/input_layer/d1_embedding/d1_embedding_weights/stack/0"
  op: "Const"
  attr {
    key: "_output_shapes"
    value {
      list {
        shape {
        }
      }
    }
  }
  attr {
    key: "dtype"
    value {
      type: DT_INT32
    }
  }
  attr {
    key: "value"
    value {
      tensor {
        dtype: DT_INT32
        tensor_shape {
        }
        int_val: 1
      }
    }
  }
}
node {
  name: "dnn/input_from_feature_columns/input_layer/d1_embedding/d1_embedding_weights/stack"
  op: "Pack"
  input: "dnn/input_from_feature_columns/input_layer/d1_embedding/d1_embedding_weights/stack/0"
  input: "dnn/input_from_feature_columns/input_layer/d1_embedding/d1_embedding_weights/strided_slice"
  attr {
    key: "N"
    value {
      i: 2
    }
  }
  attr {
    key: "T"
    value {
      type: DT_INT32
    }
  }
  attr {
    key: "_output_shapes"
    value {
      list {
        shape {
          dim {
            size: 2
          }
        }
      }
    }
  }
  attr {
    key: "axis"
    value {
      i: 0
    }
  }
}
node {
  name: "dnn/input_from_feature_columns/input_layer/d1_embedding/d1_embedding_weights/Tile"
  op: "Tile"
  input: "dnn/input_from_feature_columns/input_layer/d1_embedding/d1_embedding_weights/Reshape_1"
  input: "dnn/input_from_feature_columns/input_layer/d1_embedding/d1_embedding_weights/stack"
  attr {
    key: "T"
    value {
      type: DT_BOOL
    }
  }
  attr {
    key: "Tmultiples"
    value {
      type: DT_INT32
    }
  }
  attr {
    key: "_output_shapes"
    value {
      list {
        shape {
          dim {
            size: -1
          }
          dim {
            size: -1
          }
        }
      }
    }
  }
}
node {
  name: "dnn/input_from_feature_columns/input_layer/d1_embedding/d1_embedding_weights/zeros_like"
  op: "ZerosLike"
  input: "dnn/input_from_feature_columns/input_layer/d1_embedding/d1_embedding_weights/embedding_lookup_sparse"
  attr {
    key: "T"
    value {
      type: DT_FLOAT
    }
  }
  attr {
    key: "_output_shapes"
    value {
      list {
        shape {
          dim {
            size: -1
          }
          dim {
            size: 8
          }
        }
      }
    }
  }
}
node {
  name: "dnn/input_from_feature_columns/input_layer/d1_embedding/d1_embedding_weights"
  op: "Select"
  input: "dnn/input_from_feature_columns/input_layer/d1_embedding/d1_embedding_weights/Tile"
  input: "dnn/input_from_feature_columns/input_layer/d1_embedding/d1_embedding_weights/zeros_like"
  input: "dnn/input_from_feature_columns/input_layer/d1_embedding/d1_embedding_weights/embedding_lookup_sparse"
  attr {
    key: "T"
    value {
      type: DT_FLOAT
    }
  }
  attr {
    key: "_output_shapes"
    value {
      list {
        shape {
          dim {
            size: -1
          }
          dim {
            size: 8
          }
        }
      }
    }
  }
}
node {
  name: "dnn/input_from_feature_columns/input_layer/d1_embedding/d1_embedding_weights/Cast_1"
  op: "Cast"
  input: "dnn/input_from_feature_columns/input_layer/d1_embedding/to_sparse_input/dense_shape"
  attr {
    key: "DstT"
    value {
      type: DT_INT32
    }
  }
  attr {
    key: "SrcT"
    value {
      type: DT_INT64
    }
  }
  attr {
    key: "Truncate"
    value {
      b: false
    }
  }
  attr {
    key: "_output_shapes"
    value {
      list {
        shape {
          dim {
            size: 2
          }
        }
      }
    }
  }
}
node {
  name: "dnn/input_from_feature_columns/input_layer/d1_embedding/d1_embedding_weights/Slice_1/begin"
  op: "Const"
  attr {
    key: "_output_shapes"
    value {
      list {
        shape {
          dim {
            size: 1
          }
        }
      }
    }
  }
  attr {
    key: "dtype"
    value {
      type: DT_INT32
    }
  }
  attr {
    key: "value"
    value {
      tensor {
        dtype: DT_INT32
        tensor_shape {
          dim {
            size: 1
          }
        }
        int_val: 0
      }
    }
  }
}
node {
  name: "dnn/input_from_feature_columns/input_layer/d1_embedding/d1_embedding_weights/Slice_1/size"
  op: "Const"
  attr {
    key: "_output_shapes"
    value {
      list {
        shape {
          dim {
            size: 1
          }
        }
      }
    }
  }
  attr {
    key: "dtype"
    value {
      type: DT_INT32
    }
  }
  attr {
    key: "value"
    value {
      tensor {
        dtype: DT_INT32
        tensor_shape {
          dim {
            size: 1
          }
        }
        int_val: 1
      }
    }
  }
}
node {
  name: "dnn/input_from_feature_columns/input_layer/d1_embedding/d1_embedding_weights/Slice_1"
  op: "Slice"
  input: "dnn/input_from_feature_columns/input_layer/d1_embedding/d1_embedding_weights/Cast_1"
  input: "dnn/input_from_feature_columns/input_layer/d1_embedding/d1_embedding_weights/Slice_1/begin"
  input: "dnn/input_from_feature_columns/input_layer/d1_embedding/d1_embedding_weights/Slice_1/size"
  attr {
    key: "Index"
    value {
      type: DT_INT32
    }
  }
  attr {
    key: "T"
    value {
      type: DT_INT32
    }
  }
  attr {
    key: "_output_shapes"
    value {
      list {
        shape {
          dim {
            size: 1
          }
        }
      }
    }
  }
}
node {
  name: "dnn/input_from_feature_columns/input_layer/d1_embedding/d1_embedding_weights/Shape_1"
  op: "Shape"
  input: "dnn/input_from_feature_columns/input_layer/d1_embedding/d1_embedding_weights"
  attr {
    key: "T"
    value {
      type: DT_FLOAT
    }
  }
  attr {
    key: "_output_shapes"
    value {
      list {
        shape {
          dim {
            size: 2
          }
        }
      }
    }
  }
  attr {
    key: "out_type"
    value {
      type: DT_INT32
    }
  }
}
node {
  name: "dnn/input_from_feature_columns/input_layer/d1_embedding/d1_embedding_weights/Slice_2/begin"
  op: "Const"
  attr {
    key: "_output_shapes"
    value {
      list {
        shape {
          dim {
            size: 1
          }
        }
      }
    }
  }
  attr {
    key: "dtype"
    value {
      type: DT_INT32
    }
  }
  attr {
    key: "value"
    value {
      tensor {
        dtype: DT_INT32
        tensor_shape {
          dim {
            size: 1
          }
        }
        int_val: 1
      }
    }
  }
}
node {
  name: "dnn/input_from_feature_columns/input_layer/d1_embedding/d1_embedding_weights/Slice_2/size"
  op: "Const"
  attr {
    key: "_output_shapes"
    value {
      list {
        shape {
          dim {
            size: 1
          }
        }
      }
    }
  }
  attr {
    key: "dtype"
    value {
      type: DT_INT32
    }
  }
  attr {
    key: "value"
    value {
      tensor {
        dtype: DT_INT32
        tensor_shape {
          dim {
            size: 1
          }
        }
        int_val: -1
      }
    }
  }
}
node {
  name: "dnn/input_from_feature_columns/input_layer/d1_embedding/d1_embedding_weights/Slice_2"
  op: "Slice"
  input: "dnn/input_from_feature_columns/input_layer/d1_embedding/d1_embedding_weights/Shape_1"
  input: "dnn/input_from_feature_columns/input_layer/d1_embedding/d1_embedding_weights/Slice_2/begin"
  input: "dnn/input_from_feature_columns/input_layer/d1_embedding/d1_embedding_weights/Slice_2/size"
  attr {
    key: "Index"
    value {
      type: DT_INT32
    }
  }
  attr {
    key: "T"
    value {
      type: DT_INT32
    }
  }
  attr {
    key: "_output_shapes"
    value {
      list {
        shape {
          dim {
            size: 1
          }
        }
      }
    }
  }
}
node {
  name: "dnn/input_from_feature_columns/input_layer/d1_embedding/d1_embedding_weights/concat/axis"
  op: "Const"
  attr {
    key: "_output_shapes"
    value {
      list {
        shape {
        }
      }
    }
  }
  attr {
    key: "dtype"
    value {
      type: DT_INT32
    }
  }
  attr {
    key: "value"
    value {
      tensor {
        dtype: DT_INT32
        tensor_shape {
        }
        int_val: 0
      }
    }
  }
}
node {
  name: "dnn/input_from_feature_columns/input_layer/d1_embedding/d1_embedding_weights/concat"
  op: "ConcatV2"
  input: "dnn/input_from_feature_columns/input_layer/d1_embedding/d1_embedding_weights/Slice_1"
  input: "dnn/input_from_feature_columns/input_layer/d1_embedding/d1_embedding_weights/Slice_2"
  input: "dnn/input_from_feature_columns/input_layer/d1_embedding/d1_embedding_weights/concat/axis"
  attr {
    key: "N"
    value {
      i: 2
    }
  }
  attr {
    key: "T"
    value {
      type: DT_INT32
    }
  }
  attr {
    key: "Tidx"
    value {
      type: DT_INT32
    }
  }
  attr {
    key: "_output_shapes"
    value {
      list {
        shape {
          dim {
            size: 2
          }
        }
      }
    }
  }
}
node {
  name: "dnn/input_from_feature_columns/input_layer/d1_embedding/d1_embedding_weights/Reshape_2"
  op: "Reshape"
  input: "dnn/input_from_feature_columns/input_layer/d1_embedding/d1_embedding_weights"
  input: "dnn/input_from_feature_columns/input_layer/d1_embedding/d1_embedding_weights/concat"
  attr {
    key: "T"
    value {
      type: DT_FLOAT
    }
  }
  attr {
    key: "Tshape"
    value {
      type: DT_INT32
    }
  }
  attr {
    key: "_output_shapes"
    value {
      list {
        shape {
          dim {
            size: -1
          }
          dim {
            size: 8
          }
        }
      }
    }
  }
}
node {
  name: "dnn/input_from_feature_columns/input_layer/d1_embedding/Shape"
  op: "Shape"
  input: "dnn/input_from_feature_columns/input_layer/d1_embedding/d1_embedding_weights/Reshape_2"
  attr {
    key: "T"
    value {
      type: DT_FLOAT
    }
  }
  attr {
    key: "_output_shapes"
    value {
      list {
        shape {
          dim {
            size: 2
          }
        }
      }
    }
  }
  attr {
    key: "out_type"
    value {
      type: DT_INT32
    }
  }
}
node {
  name: "dnn/input_from_feature_columns/input_layer/d1_embedding/strided_slice/stack"
  op: "Const"
  attr {
    key: "_output_shapes"
    value {
      list {
        shape {
          dim {
            size: 1
          }
        }
      }
    }
  }
  attr {
    key: "dtype"
    value {
      type: DT_INT32
    }
  }
  attr {
    key: "value"
    value {
      tensor {
        dtype: DT_INT32
        tensor_shape {
          dim {
            size: 1
          }
        }
        int_val: 0
      }
    }
  }
}
node {
  name: "dnn/input_from_feature_columns/input_layer/d1_embedding/strided_slice/stack_1"
  op: "Const"
  attr {
    key: "_output_shapes"
    value {
      list {
        shape {
          dim {
            size: 1
          }
        }
      }
    }
  }
  attr {
    key: "dtype"
    value {
      type: DT_INT32
    }
  }
  attr {
    key: "value"
    value {
      tensor {
        dtype: DT_INT32
        tensor_shape {
          dim {
            size: 1
          }
        }
        int_val: 1
      }
    }
  }
}
node {
  name: "dnn/input_from_feature_columns/input_layer/d1_embedding/strided_slice/stack_2"
  op: "Const"
  attr {
    key: "_output_shapes"
    value {
      list {
        shape {
          dim {
            size: 1
          }
        }
      }
    }
  }
  attr {
    key: "dtype"
    value {
      type: DT_INT32
    }
  }
  attr {
    key: "value"
    value {
      tensor {
        dtype: DT_INT32
        tensor_shape {
          dim {
            size: 1
          }
        }
        int_val: 1
      }
    }
  }
}
node {
  name: "dnn/input_from_feature_columns/input_layer/d1_embedding/strided_slice"
  op: "StridedSlice"
  input: "dnn/input_from_feature_columns/input_layer/d1_embedding/Shape"
  input: "dnn/input_from_feature_columns/input_layer/d1_embedding/strided_slice/stack"
  input: "dnn/input_from_feature_columns/input_layer/d1_embedding/strided_slice/stack_1"
  input: "dnn/input_from_feature_columns/input_layer/d1_embedding/strided_slice/stack_2"
  attr {
    key: "Index"
    value {
      type: DT_INT32
    }
  }
  attr {
    key: "T"
    value {
      type: DT_INT32
    }
  }
  attr {
    key: "_output_shapes"
    value {
      list {
        shape {
        }
      }
    }
  }
  attr {
    key: "begin_mask"
    value {
      i: 0
    }
  }
  attr {
    key: "ellipsis_mask"
    value {
      i: 0
    }
  }
  attr {
    key: "end_mask"
    value {
      i: 0
    }
  }
  attr {
    key: "new_axis_mask"
    value {
      i: 0
    }
  }
  attr {
    key: "shrink_axis_mask"
    value {
      i: 1
    }
  }
}
node {
  name: "dnn/input_from_feature_columns/input_layer/d1_embedding/Reshape/shape/1"
  op: "Const"
  attr {
    key: "_output_shapes"
    value {
      list {
        shape {
        }
      }
    }
  }
  attr {
    key: "dtype"
    value {
      type: DT_INT32
    }
  }
  attr {
    key: "value"
    value {
      tensor {
        dtype: DT_INT32
        tensor_shape {
        }
        int_val: 8
      }
    }
  }
}
node {
  name: "dnn/input_from_feature_columns/input_layer/d1_embedding/Reshape/shape"
  op: "Pack"
  input: "dnn/input_from_feature_columns/input_layer/d1_embedding/strided_slice"
  input: "dnn/input_from_feature_columns/input_layer/d1_embedding/Reshape/shape/1"
  attr {
    key: "N"
    value {
      i: 2
    }
  }
  attr {
    key: "T"
    value {
      type: DT_INT32
    }
  }
  attr {
    key: "_output_shapes"
    value {
      list {
        shape {
          dim {
            size: 2
          }
        }
      }
    }
  }
  attr {
    key: "axis"
    value {
      i: 0
    }
  }
}
node {
  name: "dnn/input_from_feature_columns/input_layer/d1_embedding/Reshape"
  op: "Reshape"
  input: "dnn/input_from_feature_columns/input_layer/d1_embedding/d1_embedding_weights/Reshape_2"
  input: "dnn/input_from_feature_columns/input_layer/d1_embedding/Reshape/shape"
  attr {
    key: "T"
    value {
      type: DT_FLOAT
    }
  }
  attr {
    key: "Tshape"
    value {
      type: DT_INT32
    }
  }
  attr {
    key: "_output_shapes"
    value {
      list {
        shape {
          dim {
            size: -1
          }
          dim {
            size: 8
          }
        }
      }
    }
  }
}
node {
  name: "dnn/input_from_feature_columns/input_layer/d2_embedding/to_sparse_input/ignore_value/x"
  op: "Const"
  attr {
    key: "_output_shapes"
    value {
      list {
        shape {
        }
      }
    }
  }
  attr {
    key: "dtype"
    value {
      type: DT_STRING
    }
  }
  attr {
    key: "value"
    value {
      tensor {
        dtype: DT_STRING
        tensor_shape {
        }
        string_val: ""
      }
    }
  }
}
node {
  name: "dnn/input_from_feature_columns/input_layer/d2_embedding/to_sparse_input/NotEqual"
  op: "NotEqual"
  input: "IteratorGetNext:2"
  input: "dnn/input_from_feature_columns/input_layer/d2_embedding/to_sparse_input/ignore_value/x"
  attr {
    key: "T"
    value {
      type: DT_STRING
    }
  }
  attr {
    key: "_output_shapes"
    value {
      list {
        shape {
          dim {
            size: 26
          }
          dim {
            size: -1
          }
        }
      }
    }
  }
}
node {
  name: "dnn/input_from_feature_columns/input_layer/d2_embedding/to_sparse_input/indices"
  op: "Where"
  input: "dnn/input_from_feature_columns/input_layer/d2_embedding/to_sparse_input/NotEqual"
  attr {
    key: "T"
    value {
      type: DT_BOOL
    }
  }
  attr {
    key: "_output_shapes"
    value {
      list {
        shape {
          dim {
            size: -1
          }
          dim {
            size: 2
          }
        }
      }
    }
  }
}
node {
  name: "dnn/input_from_feature_columns/input_layer/d2_embedding/to_sparse_input/values"
  op: "GatherNd"
  input: "IteratorGetNext:2"
  input: "dnn/input_from_feature_columns/input_layer/d2_embedding/to_sparse_input/indices"
  attr {
    key: "Tindices"
    value {
      type: DT_INT64
    }
  }
  attr {
    key: "Tparams"
    value {
      type: DT_STRING
    }
  }
  attr {
    key: "_output_shapes"
    value {
      list {
        shape {
          dim {
            size: -1
          }
        }
      }
    }
  }
}
node {
  name: "dnn/input_from_feature_columns/input_layer/d2_embedding/to_sparse_input/dense_shape"
  op: "Shape"
  input: "IteratorGetNext:2"
  attr {
    key: "T"
    value {
      type: DT_STRING
    }
  }
  attr {
    key: "_output_shapes"
    value {
      list {
        shape {
          dim {
            size: 2
          }
        }
      }
    }
  }
  attr {
    key: "out_type"
    value {
      type: DT_INT64
    }
  }
}
node {
  name: "dnn/input_from_feature_columns/input_layer/d2_embedding/lookup"
  op: "StringToHashBucketFast"
  input: "dnn/input_from_feature_columns/input_layer/d2_embedding/to_sparse_input/values"
  attr {
    key: "_output_shapes"
    value {
      list {
        shape {
          dim {
            size: -1
          }
        }
      }
    }
  }
  attr {
    key: "num_buckets"
    value {
      i: 3000
    }
  }
}
node {
  name: "dnn/input_from_feature_columns/input_layer/d2_embedding/embedding_weights/part_0/Initializer/truncated_normal/shape"
  op: "Const"
  attr {
    key: "_class"
    value {
      list {
        s: "loc:@dnn/input_from_feature_columns/input_layer/d2_embedding/embedding_weights/part_0"
      }
    }
  }
  attr {
    key: "_output_shapes"
    value {
      list {
        shape {
          dim {
            size: 2
          }
        }
      }
    }
  }
  attr {
    key: "dtype"
    value {
      type: DT_INT32
    }
  }
  attr {
    key: "value"
    value {
      tensor {
        dtype: DT_INT32
        tensor_shape {
          dim {
            size: 2
          }
        }
        tensor_content: "\270\013\000\000\010\000\000\000"
      }
    }
  }
}
node {
  name: "dnn/input_from_feature_columns/input_layer/d2_embedding/embedding_weights/part_0/Initializer/truncated_normal/mean"
  op: "Const"
  attr {
    key: "_class"
    value {
      list {
        s: "loc:@dnn/input_from_feature_columns/input_layer/d2_embedding/embedding_weights/part_0"
      }
    }
  }
  attr {
    key: "_output_shapes"
    value {
      list {
        shape {
        }
      }
    }
  }
  attr {
    key: "dtype"
    value {
      type: DT_FLOAT
    }
  }
  attr {
    key: "value"
    value {
      tensor {
        dtype: DT_FLOAT
        tensor_shape {
        }
        float_val: 0.0
      }
    }
  }
}
node {
  name: "dnn/input_from_feature_columns/input_layer/d2_embedding/embedding_weights/part_0/Initializer/truncated_normal/stddev"
  op: "Const"
  attr {
    key: "_class"
    value {
      list {
        s: "loc:@dnn/input_from_feature_columns/input_layer/d2_embedding/embedding_weights/part_0"
      }
    }
  }
  attr {
    key: "_output_shapes"
    value {
      list {
        shape {
        }
      }
    }
  }
  attr {
    key: "dtype"
    value {
      type: DT_FLOAT
    }
  }
  attr {
    key: "value"
    value {
      tensor {
        dtype: DT_FLOAT
        tensor_shape {
        }
        float_val: 0.3535533845424652
      }
    }
  }
}
node {
  name: "dnn/input_from_feature_columns/input_layer/d2_embedding/embedding_weights/part_0/Initializer/truncated_normal/TruncatedNormal"
  op: "TruncatedNormal"
  input: "dnn/input_from_feature_columns/input_layer/d2_embedding/embedding_weights/part_0/Initializer/truncated_normal/shape"
  attr {
    key: "T"
    value {
      type: DT_INT32
    }
  }
  attr {
    key: "_class"
    value {
      list {
        s: "loc:@dnn/input_from_feature_columns/input_layer/d2_embedding/embedding_weights/part_0"
      }
    }
  }
  attr {
    key: "_output_shapes"
    value {
      list {
        shape {
          dim {
            size: 3000
          }
          dim {
            size: 8
          }
        }
      }
    }
  }
  attr {
    key: "dtype"
    value {
      type: DT_FLOAT
    }
  }
  attr {
    key: "seed"
    value {
      i: 0
    }
  }
  attr {
    key: "seed2"
    value {
      i: 0
    }
  }
}
node {
  name: "dnn/input_from_feature_columns/input_layer/d2_embedding/embedding_weights/part_0/Initializer/truncated_normal/mul"
  op: "Mul"
  input: "dnn/input_from_feature_columns/input_layer/d2_embedding/embedding_weights/part_0/Initializer/truncated_normal/TruncatedNormal"
  input: "dnn/input_from_feature_columns/input_layer/d2_embedding/embedding_weights/part_0/Initializer/truncated_normal/stddev"
  attr {
    key: "T"
    value {
      type: DT_FLOAT
    }
  }
  attr {
    key: "_class"
    value {
      list {
        s: "loc:@dnn/input_from_feature_columns/input_layer/d2_embedding/embedding_weights/part_0"
      }
    }
  }
  attr {
    key: "_output_shapes"
    value {
      list {
        shape {
          dim {
            size: 3000
          }
          dim {
            size: 8
          }
        }
      }
    }
  }
}
node {
  name: "dnn/input_from_feature_columns/input_layer/d2_embedding/embedding_weights/part_0/Initializer/truncated_normal"
  op: "Add"
  input: "dnn/input_from_feature_columns/input_layer/d2_embedding/embedding_weights/part_0/Initializer/truncated_normal/mul"
  input: "dnn/input_from_feature_columns/input_layer/d2_embedding/embedding_weights/part_0/Initializer/truncated_normal/mean"
  attr {
    key: "T"
    value {
      type: DT_FLOAT
    }
  }
  attr {
    key: "_class"
    value {
      list {
        s: "loc:@dnn/input_from_feature_columns/input_layer/d2_embedding/embedding_weights/part_0"
      }
    }
  }
  attr {
    key: "_output_shapes"
    value {
      list {
        shape {
          dim {
            size: 3000
          }
          dim {
            size: 8
          }
        }
      }
    }
  }
}
node {
  name: "dnn/input_from_feature_columns/input_layer/d2_embedding/embedding_weights/part_0"
  op: "VariableV2"
  attr {
    key: "_class"
    value {
      list {
        s: "loc:@dnn/input_from_feature_columns/input_layer/d2_embedding/embedding_weights/part_0"
      }
    }
  }
  attr {
    key: "_output_shapes"
    value {
      list {
        shape {
          dim {
            size: 3000
          }
          dim {
            size: 8
          }
        }
      }
    }
  }
  attr {
    key: "container"
    value {
      s: ""
    }
  }
  attr {
    key: "dtype"
    value {
      type: DT_FLOAT
    }
  }
  attr {
    key: "shape"
    value {
      shape {
        dim {
          size: 3000
        }
        dim {
          size: 8
        }
      }
    }
  }
  attr {
    key: "shared_name"
    value {
      s: ""
    }
  }
}
node {
  name: "dnn/input_from_feature_columns/input_layer/d2_embedding/embedding_weights/part_0/Assign"
  op: "Assign"
  input: "dnn/input_from_feature_columns/input_layer/d2_embedding/embedding_weights/part_0"
  input: "dnn/input_from_feature_columns/input_layer/d2_embedding/embedding_weights/part_0/Initializer/truncated_normal"
  attr {
    key: "T"
    value {
      type: DT_FLOAT
    }
  }
  attr {
    key: "_class"
    value {
      list {
        s: "loc:@dnn/input_from_feature_columns/input_layer/d2_embedding/embedding_weights/part_0"
      }
    }
  }
  attr {
    key: "_output_shapes"
    value {
      list {
        shape {
          dim {
            size: 3000
          }
          dim {
            size: 8
          }
        }
      }
    }
  }
  attr {
    key: "use_locking"
    value {
      b: true
    }
  }
  attr {
    key: "validate_shape"
    value {
      b: true
    }
  }
}
node {
  name: "dnn/input_from_feature_columns/input_layer/d2_embedding/embedding_weights/part_0/read"
  op: "Identity"
  input: "dnn/input_from_feature_columns/input_layer/d2_embedding/embedding_weights/part_0"
  attr {
    key: "T"
    value {
      type: DT_FLOAT
    }
  }
  attr {
    key: "_class"
    value {
      list {
        s: "loc:@dnn/input_from_feature_columns/input_layer/d2_embedding/embedding_weights/part_0"
      }
    }
  }
  attr {
    key: "_output_shapes"
    value {
      list {
        shape {
          dim {
            size: 3000
          }
          dim {
            size: 8
          }
        }
      }
    }
  }
}
node {
  name: "dnn/input_from_feature_columns/input_layer/d2_embedding/d2_embedding_weights/Slice/begin"
  op: "Const"
  attr {
    key: "_output_shapes"
    value {
      list {
        shape {
          dim {
            size: 1
          }
        }
      }
    }
  }
  attr {
    key: "dtype"
    value {
      type: DT_INT32
    }
  }
  attr {
    key: "value"
    value {
      tensor {
        dtype: DT_INT32
        tensor_shape {
          dim {
            size: 1
          }
        }
        int_val: 0
      }
    }
  }
}
node {
  name: "dnn/input_from_feature_columns/input_layer/d2_embedding/d2_embedding_weights/Slice/size"
  op: "Const"
  attr {
    key: "_output_shapes"
    value {
      list {
        shape {
          dim {
            size: 1
          }
        }
      }
    }
  }
  attr {
    key: "dtype"
    value {
      type: DT_INT32
    }
  }
  attr {
    key: "value"
    value {
      tensor {
        dtype: DT_INT32
        tensor_shape {
          dim {
            size: 1
          }
        }
        int_val: 1
      }
    }
  }
}
node {
  name: "dnn/input_from_feature_columns/input_layer/d2_embedding/d2_embedding_weights/Slice"
  op: "Slice"
  input: "dnn/input_from_feature_columns/input_layer/d2_embedding/to_sparse_input/dense_shape"
  input: "dnn/input_from_feature_columns/input_layer/d2_embedding/d2_embedding_weights/Slice/begin"
  input: "dnn/input_from_feature_columns/input_layer/d2_embedding/d2_embedding_weights/Slice/size"
  attr {
    key: "Index"
    value {
      type: DT_INT32
    }
  }
  attr {
    key: "T"
    value {
      type: DT_INT64
    }
  }
  attr {
    key: "_output_shapes"
    value {
      list {
        shape {
          dim {
            size: 1
          }
        }
      }
    }
  }
}
node {
  name: "dnn/input_from_feature_columns/input_layer/d2_embedding/d2_embedding_weights/Const"
  op: "Const"
  attr {
    key: "_output_shapes"
    value {
      list {
        shape {
          dim {
            size: 1
          }
        }
      }
    }
  }
  attr {
    key: "dtype"
    value {
      type: DT_INT32
    }
  }
  attr {
    key: "value"
    value {
      tensor {
        dtype: DT_INT32
        tensor_shape {
          dim {
            size: 1
          }
        }
        int_val: 0
      }
    }
  }
}
node {
  name: "dnn/input_from_feature_columns/input_layer/d2_embedding/d2_embedding_weights/Prod"
  op: "Prod"
  input: "dnn/input_from_feature_columns/input_layer/d2_embedding/d2_embedding_weights/Slice"
  input: "dnn/input_from_feature_columns/input_layer/d2_embedding/d2_embedding_weights/Const"
  attr {
    key: "T"
    value {
      type: DT_INT64
    }
  }
  attr {
    key: "Tidx"
    value {
      type: DT_INT32
    }
  }
  attr {
    key: "_output_shapes"
    value {
      list {
        shape {
        }
      }
    }
  }
  attr {
    key: "keep_dims"
    value {
      b: false
    }
  }
}
node {
  name: "dnn/input_from_feature_columns/input_layer/d2_embedding/d2_embedding_weights/GatherV2/indices"
  op: "Const"
  attr {
    key: "_output_shapes"
    value {
      list {
        shape {
        }
      }
    }
  }
  attr {
    key: "dtype"
    value {
      type: DT_INT32
    }
  }
  attr {
    key: "value"
    value {
      tensor {
        dtype: DT_INT32
        tensor_shape {
        }
        int_val: 1
      }
    }
  }
}
node {
  name: "dnn/input_from_feature_columns/input_layer/d2_embedding/d2_embedding_weights/GatherV2/axis"
  op: "Const"
  attr {
    key: "_output_shapes"
    value {
      list {
        shape {
        }
      }
    }
  }
  attr {
    key: "dtype"
    value {
      type: DT_INT32
    }
  }
  attr {
    key: "value"
    value {
      tensor {
        dtype: DT_INT32
        tensor_shape {
        }
        int_val: 0
      }
    }
  }
}
node {
  name: "dnn/input_from_feature_columns/input_layer/d2_embedding/d2_embedding_weights/GatherV2"
  op: "GatherV2"
  input: "dnn/input_from_feature_columns/input_layer/d2_embedding/to_sparse_input/dense_shape"
  input: "dnn/input_from_feature_columns/input_layer/d2_embedding/d2_embedding_weights/GatherV2/indices"
  input: "dnn/input_from_feature_columns/input_layer/d2_embedding/d2_embedding_weights/GatherV2/axis"
  attr {
    key: "Taxis"
    value {
      type: DT_INT32
    }
  }
  attr {
    key: "Tindices"
    value {
      type: DT_INT32
    }
  }
  attr {
    key: "Tparams"
    value {
      type: DT_INT64
    }
  }
  attr {
    key: "_output_shapes"
    value {
      list {
        shape {
        }
      }
    }
  }
}
node {
  name: "dnn/input_from_feature_columns/input_layer/d2_embedding/d2_embedding_weights/Cast/x"
  op: "Pack"
  input: "dnn/input_from_feature_columns/input_layer/d2_embedding/d2_embedding_weights/Prod"
  input: "dnn/input_from_feature_columns/input_layer/d2_embedding/d2_embedding_weights/GatherV2"
  attr {
    key: "N"
    value {
      i: 2
    }
  }
  attr {
    key: "T"
    value {
      type: DT_INT64
    }
  }
  attr {
    key: "_output_shapes"
    value {
      list {
        shape {
          dim {
            size: 2
          }
        }
      }
    }
  }
  attr {
    key: "axis"
    value {
      i: 0
    }
  }
}
node {
  name: "dnn/input_from_feature_columns/input_layer/d2_embedding/d2_embedding_weights/SparseReshape"
  op: "SparseReshape"
  input: "dnn/input_from_feature_columns/input_layer/d2_embedding/to_sparse_input/indices"
  input: "dnn/input_from_feature_columns/input_layer/d2_embedding/to_sparse_input/dense_shape"
  input: "dnn/input_from_feature_columns/input_layer/d2_embedding/d2_embedding_weights/Cast/x"
  attr {
    key: "_output_shapes"
    value {
      list {
        shape {
          dim {
            size: -1
          }
          dim {
            size: 2
          }
        }
        shape {
          dim {
            size: 2
          }
        }
      }
    }
  }
}
node {
  name: "dnn/input_from_feature_columns/input_layer/d2_embedding/d2_embedding_weights/SparseReshape/Identity"
  op: "Identity"
  input: "dnn/input_from_feature_columns/input_layer/d2_embedding/lookup"
  attr {
    key: "T"
    value {
      type: DT_INT64
    }
  }
  attr {
    key: "_output_shapes"
    value {
      list {
        shape {
          dim {
            size: -1
          }
        }
      }
    }
  }
}
node {
  name: "dnn/input_from_feature_columns/input_layer/d2_embedding/d2_embedding_weights/GreaterEqual/y"
  op: "Const"
  attr {
    key: "_output_shapes"
    value {
      list {
        shape {
        }
      }
    }
  }
  attr {
    key: "dtype"
    value {
      type: DT_INT64
    }
  }
  attr {
    key: "value"
    value {
      tensor {
        dtype: DT_INT64
        tensor_shape {
        }
        int64_val: 0
      }
    }
  }
}
node {
  name: "dnn/input_from_feature_columns/input_layer/d2_embedding/d2_embedding_weights/GreaterEqual"
  op: "GreaterEqual"
  input: "dnn/input_from_feature_columns/input_layer/d2_embedding/d2_embedding_weights/SparseReshape/Identity"
  input: "dnn/input_from_feature_columns/input_layer/d2_embedding/d2_embedding_weights/GreaterEqual/y"
  attr {
    key: "T"
    value {
      type: DT_INT64
    }
  }
  attr {
    key: "_output_shapes"
    value {
      list {
        shape {
          dim {
            size: -1
          }
        }
      }
    }
  }
}
node {
  name: "dnn/input_from_feature_columns/input_layer/d2_embedding/d2_embedding_weights/Where"
  op: "Where"
  input: "dnn/input_from_feature_columns/input_layer/d2_embedding/d2_embedding_weights/GreaterEqual"
  attr {
    key: "T"
    value {
      type: DT_BOOL
    }
  }
  attr {
    key: "_output_shapes"
    value {
      list {
        shape {
          dim {
            size: -1
          }
          dim {
            size: 1
          }
        }
      }
    }
  }
}
node {
  name: "dnn/input_from_feature_columns/input_layer/d2_embedding/d2_embedding_weights/Reshape/shape"
  op: "Const"
  attr {
    key: "_output_shapes"
    value {
      list {
        shape {
          dim {
            size: 1
          }
        }
      }
    }
  }
  attr {
    key: "dtype"
    value {
      type: DT_INT32
    }
  }
  attr {
    key: "value"
    value {
      tensor {
        dtype: DT_INT32
        tensor_shape {
          dim {
            size: 1
          }
        }
        int_val: -1
      }
    }
  }
}
node {
  name: "dnn/input_from_feature_columns/input_layer/d2_embedding/d2_embedding_weights/Reshape"
  op: "Reshape"
  input: "dnn/input_from_feature_columns/input_layer/d2_embedding/d2_embedding_weights/Where"
  input: "dnn/input_from_feature_columns/input_layer/d2_embedding/d2_embedding_weights/Reshape/shape"
  attr {
    key: "T"
    value {
      type: DT_INT64
    }
  }
  attr {
    key: "Tshape"
    value {
      type: DT_INT32
    }
  }
  attr {
    key: "_output_shapes"
    value {
      list {
        shape {
          dim {
            size: -1
          }
        }
      }
    }
  }
}
node {
  name: "dnn/input_from_feature_columns/input_layer/d2_embedding/d2_embedding_weights/GatherV2_1/axis"
  op: "Const"
  attr {
    key: "_output_shapes"
    value {
      list {
        shape {
        }
      }
    }
  }
  attr {
    key: "dtype"
    value {
      type: DT_INT32
    }
  }
  attr {
    key: "value"
    value {
      tensor {
        dtype: DT_INT32
        tensor_shape {
        }
        int_val: 0
      }
    }
  }
}
node {
  name: "dnn/input_from_feature_columns/input_layer/d2_embedding/d2_embedding_weights/GatherV2_1"
  op: "GatherV2"
  input: "dnn/input_from_feature_columns/input_layer/d2_embedding/d2_embedding_weights/SparseReshape"
  input: "dnn/input_from_feature_columns/input_layer/d2_embedding/d2_embedding_weights/Reshape"
  input: "dnn/input_from_feature_columns/input_layer/d2_embedding/d2_embedding_weights/GatherV2_1/axis"
  attr {
    key: "Taxis"
    value {
      type: DT_INT32
    }
  }
  attr {
    key: "Tindices"
    value {
      type: DT_INT64
    }
  }
  attr {
    key: "Tparams"
    value {
      type: DT_INT64
    }
  }
  attr {
    key: "_output_shapes"
    value {
      list {
        shape {
          dim {
            size: -1
          }
          dim {
            size: 2
          }
        }
      }
    }
  }
}
node {
  name: "dnn/input_from_feature_columns/input_layer/d2_embedding/d2_embedding_weights/GatherV2_2/axis"
  op: "Const"
  attr {
    key: "_output_shapes"
    value {
      list {
        shape {
        }
      }
    }
  }
  attr {
    key: "dtype"
    value {
      type: DT_INT32
    }
  }
  attr {
    key: "value"
    value {
      tensor {
        dtype: DT_INT32
        tensor_shape {
        }
        int_val: 0
      }
    }
  }
}
node {
  name: "dnn/input_from_feature_columns/input_layer/d2_embedding/d2_embedding_weights/GatherV2_2"
  op: "GatherV2"
  input: "dnn/input_from_feature_columns/input_layer/d2_embedding/d2_embedding_weights/SparseReshape/Identity"
  input: "dnn/input_from_feature_columns/input_layer/d2_embedding/d2_embedding_weights/Reshape"
  input: "dnn/input_from_feature_columns/input_layer/d2_embedding/d2_embedding_weights/GatherV2_2/axis"
  attr {
    key: "Taxis"
    value {
      type: DT_INT32
    }
  }
  attr {
    key: "Tindices"
    value {
      type: DT_INT64
    }
  }
  attr {
    key: "Tparams"
    value {
      type: DT_INT64
    }
  }
  attr {
    key: "_output_shapes"
    value {
      list {
        shape {
          dim {
            size: -1
          }
        }
      }
    }
  }
}
node {
  name: "dnn/input_from_feature_columns/input_layer/d2_embedding/d2_embedding_weights/Identity"
  op: "Identity"
  input: "dnn/input_from_feature_columns/input_layer/d2_embedding/d2_embedding_weights/SparseReshape:1"
  attr {
    key: "T"
    value {
      type: DT_INT64
    }
  }
  attr {
    key: "_output_shapes"
    value {
      list {
        shape {
          dim {
            size: 2
          }
        }
      }
    }
  }
}
node {
  name: "dnn/input_from_feature_columns/input_layer/d2_embedding/d2_embedding_weights/SparseFillEmptyRows/Const"
  op: "Const"
  attr {
    key: "_output_shapes"
    value {
      list {
        shape {
        }
      }
    }
  }
  attr {
    key: "dtype"
    value {
      type: DT_INT64
    }
  }
  attr {
    key: "value"
    value {
      tensor {
        dtype: DT_INT64
        tensor_shape {
        }
        int64_val: 0
      }
    }
  }
}
node {
  name: "dnn/input_from_feature_columns/input_layer/d2_embedding/d2_embedding_weights/SparseFillEmptyRows/SparseFillEmptyRows"
  op: "SparseFillEmptyRows"
  input: "dnn/input_from_feature_columns/input_layer/d2_embedding/d2_embedding_weights/GatherV2_1"
  input: "dnn/input_from_feature_columns/input_layer/d2_embedding/d2_embedding_weights/GatherV2_2"
  input: "dnn/input_from_feature_columns/input_layer/d2_embedding/d2_embedding_weights/Identity"
  input: "dnn/input_from_feature_columns/input_layer/d2_embedding/d2_embedding_weights/SparseFillEmptyRows/Const"
  attr {
    key: "T"
    value {
      type: DT_INT64
    }
  }
  attr {
    key: "_output_shapes"
    value {
      list {
        shape {
          dim {
            size: -1
          }
          dim {
            size: 2
          }
        }
        shape {
          dim {
            size: -1
          }
        }
        shape {
          dim {
            size: -1
          }
        }
        shape {
          dim {
            size: -1
          }
        }
      }
    }
  }
}
node {
  name: "dnn/input_from_feature_columns/input_layer/d2_embedding/d2_embedding_weights/embedding_lookup_sparse/strided_slice/stack"
  op: "Const"
  attr {
    key: "_output_shapes"
    value {
      list {
        shape {
          dim {
            size: 2
          }
        }
      }
    }
  }
  attr {
    key: "dtype"
    value {
      type: DT_INT32
    }
  }
  attr {
    key: "value"
    value {
      tensor {
        dtype: DT_INT32
        tensor_shape {
          dim {
            size: 2
          }
        }
        tensor_content: "\000\000\000\000\000\000\000\000"
      }
    }
  }
}
node {
  name: "dnn/input_from_feature_columns/input_layer/d2_embedding/d2_embedding_weights/embedding_lookup_sparse/strided_slice/stack_1"
  op: "Const"
  attr {
    key: "_output_shapes"
    value {
      list {
        shape {
          dim {
            size: 2
          }
        }
      }
    }
  }
  attr {
    key: "dtype"
    value {
      type: DT_INT32
    }
  }
  attr {
    key: "value"
    value {
      tensor {
        dtype: DT_INT32
        tensor_shape {
          dim {
            size: 2
          }
        }
        tensor_content: "\000\000\000\000\001\000\000\000"
      }
    }
  }
}
node {
  name: "dnn/input_from_feature_columns/input_layer/d2_embedding/d2_embedding_weights/embedding_lookup_sparse/strided_slice/stack_2"
  op: "Const"
  attr {
    key: "_output_shapes"
    value {
      list {
        shape {
          dim {
            size: 2
          }
        }
      }
    }
  }
  attr {
    key: "dtype"
    value {
      type: DT_INT32
    }
  }
  attr {
    key: "value"
    value {
      tensor {
        dtype: DT_INT32
        tensor_shape {
          dim {
            size: 2
          }
        }
        tensor_content: "\001\000\000\000\001\000\000\000"
      }
    }
  }
}
node {
  name: "dnn/input_from_feature_columns/input_layer/d2_embedding/d2_embedding_weights/embedding_lookup_sparse/strided_slice"
  op: "StridedSlice"
  input: "dnn/input_from_feature_columns/input_layer/d2_embedding/d2_embedding_weights/SparseFillEmptyRows/SparseFillEmptyRows"
  input: "dnn/input_from_feature_columns/input_layer/d2_embedding/d2_embedding_weights/embedding_lookup_sparse/strided_slice/stack"
  input: "dnn/input_from_feature_columns/input_layer/d2_embedding/d2_embedding_weights/embedding_lookup_sparse/strided_slice/stack_1"
  input: "dnn/input_from_feature_columns/input_layer/d2_embedding/d2_embedding_weights/embedding_lookup_sparse/strided_slice/stack_2"
  attr {
    key: "Index"
    value {
      type: DT_INT32
    }
  }
  attr {
    key: "T"
    value {
      type: DT_INT64
    }
  }
  attr {
    key: "_output_shapes"
    value {
      list {
        shape {
          dim {
            size: -1
          }
        }
      }
    }
  }
  attr {
    key: "begin_mask"
    value {
      i: 1
    }
  }
  attr {
    key: "ellipsis_mask"
    value {
      i: 0
    }
  }
  attr {
    key: "end_mask"
    value {
      i: 1
    }
  }
  attr {
    key: "new_axis_mask"
    value {
      i: 0
    }
  }
  attr {
    key: "shrink_axis_mask"
    value {
      i: 2
    }
  }
}
node {
  name: "dnn/input_from_feature_columns/input_layer/d2_embedding/d2_embedding_weights/embedding_lookup_sparse/Cast"
  op: "Cast"
  input: "dnn/input_from_feature_columns/input_layer/d2_embedding/d2_embedding_weights/embedding_lookup_sparse/strided_slice"
  attr {
    key: "DstT"
    value {
      type: DT_INT32
    }
  }
  attr {
    key: "SrcT"
    value {
      type: DT_INT64
    }
  }
  attr {
    key: "Truncate"
    value {
      b: false
    }
  }
  attr {
    key: "_output_shapes"
    value {
      list {
        shape {
          dim {
            size: -1
          }
        }
      }
    }
  }
}
node {
  name: "dnn/input_from_feature_columns/input_layer/d2_embedding/d2_embedding_weights/embedding_lookup_sparse/Unique"
  op: "Unique"
  input: "dnn/input_from_feature_columns/input_layer/d2_embedding/d2_embedding_weights/SparseFillEmptyRows/SparseFillEmptyRows:1"
  attr {
    key: "T"
    value {
      type: DT_INT64
    }
  }
  attr {
    key: "_output_shapes"
    value {
      list {
        shape {
          dim {
            size: -1
          }
        }
        shape {
          dim {
            size: -1
          }
        }
      }
    }
  }
  attr {
    key: "out_idx"
    value {
      type: DT_INT32
    }
  }
}
node {
  name: "dnn/input_from_feature_columns/input_layer/d2_embedding/d2_embedding_weights/embedding_lookup_sparse/embedding_lookup/axis"
  op: "Const"
  attr {
    key: "_class"
    value {
      list {
        s: "loc:@dnn/input_from_feature_columns/input_layer/d2_embedding/embedding_weights/part_0"
      }
    }
  }
  attr {
    key: "_output_shapes"
    value {
      list {
        shape {
        }
      }
    }
  }
  attr {
    key: "dtype"
    value {
      type: DT_INT32
    }
  }
  attr {
    key: "value"
    value {
      tensor {
        dtype: DT_INT32
        tensor_shape {
        }
        int_val: 0
      }
    }
  }
}
node {
  name: "dnn/input_from_feature_columns/input_layer/d2_embedding/d2_embedding_weights/embedding_lookup_sparse/embedding_lookup"
  op: "GatherV2"
  input: "dnn/input_from_feature_columns/input_layer/d2_embedding/embedding_weights/part_0/read"
  input: "dnn/input_from_feature_columns/input_layer/d2_embedding/d2_embedding_weights/embedding_lookup_sparse/Unique"
  input: "dnn/input_from_feature_columns/input_layer/d2_embedding/d2_embedding_weights/embedding_lookup_sparse/embedding_lookup/axis"
  attr {
    key: "Taxis"
    value {
      type: DT_INT32
    }
  }
  attr {
    key: "Tindices"
    value {
      type: DT_INT64
    }
  }
  attr {
    key: "Tparams"
    value {
      type: DT_FLOAT
    }
  }
  attr {
    key: "_class"
    value {
      list {
        s: "loc:@dnn/input_from_feature_columns/input_layer/d2_embedding/embedding_weights/part_0"
      }
    }
  }
  attr {
    key: "_output_shapes"
    value {
      list {
        shape {
          dim {
            size: -1
          }
          dim {
            size: 8
          }
        }
      }
    }
  }
}
node {
  name: "dnn/input_from_feature_columns/input_layer/d2_embedding/d2_embedding_weights/embedding_lookup_sparse/embedding_lookup/Identity"
  op: "Identity"
  input: "dnn/input_from_feature_columns/input_layer/d2_embedding/d2_embedding_weights/embedding_lookup_sparse/embedding_lookup"
  attr {
    key: "T"
    value {
      type: DT_FLOAT
    }
  }
  attr {
    key: "_output_shapes"
    value {
      list {
        shape {
          dim {
            size: -1
          }
          dim {
            size: 8
          }
        }
      }
    }
  }
}
node {
  name: "dnn/input_from_feature_columns/input_layer/d2_embedding/d2_embedding_weights/embedding_lookup_sparse"
  op: "SparseSegmentMean"
  input: "dnn/input_from_feature_columns/input_layer/d2_embedding/d2_embedding_weights/embedding_lookup_sparse/embedding_lookup/Identity"
  input: "dnn/input_from_feature_columns/input_layer/d2_embedding/d2_embedding_weights/embedding_lookup_sparse/Unique:1"
  input: "dnn/input_from_feature_columns/input_layer/d2_embedding/d2_embedding_weights/embedding_lookup_sparse/Cast"
  attr {
    key: "T"
    value {
      type: DT_FLOAT
    }
  }
  attr {
    key: "Tidx"
    value {
      type: DT_INT32
    }
  }
  attr {
    key: "_output_shapes"
    value {
      list {
        shape {
          dim {
            size: -1
          }
          dim {
            size: 8
          }
        }
      }
    }
  }
}
node {
  name: "dnn/input_from_feature_columns/input_layer/d2_embedding/d2_embedding_weights/Reshape_1/shape"
  op: "Const"
  attr {
    key: "_output_shapes"
    value {
      list {
        shape {
          dim {
            size: 2
          }
        }
      }
    }
  }
  attr {
    key: "dtype"
    value {
      type: DT_INT32
    }
  }
  attr {
    key: "value"
    value {
      tensor {
        dtype: DT_INT32
        tensor_shape {
          dim {
            size: 2
          }
        }
        tensor_content: "\377\377\377\377\001\000\000\000"
      }
    }
  }
}
node {
  name: "dnn/input_from_feature_columns/input_layer/d2_embedding/d2_embedding_weights/Reshape_1"
  op: "Reshape"
  input: "dnn/input_from_feature_columns/input_layer/d2_embedding/d2_embedding_weights/SparseFillEmptyRows/SparseFillEmptyRows:2"
  input: "dnn/input_from_feature_columns/input_layer/d2_embedding/d2_embedding_weights/Reshape_1/shape"
  attr {
    key: "T"
    value {
      type: DT_BOOL
    }
  }
  attr {
    key: "Tshape"
    value {
      type: DT_INT32
    }
  }
  attr {
    key: "_output_shapes"
    value {
      list {
        shape {
          dim {
            size: -1
          }
          dim {
            size: 1
          }
        }
      }
    }
  }
}
node {
  name: "dnn/input_from_feature_columns/input_layer/d2_embedding/d2_embedding_weights/Shape"
  op: "Shape"
  input: "dnn/input_from_feature_columns/input_layer/d2_embedding/d2_embedding_weights/embedding_lookup_sparse"
  attr {
    key: "T"
    value {
      type: DT_FLOAT
    }
  }
  attr {
    key: "_output_shapes"
…
      device: "/device:CPU:0"
      attr {
        key: "dtype"
        value {
          type: DT_INT32
        }
      }
      attr {
        key: "value"
        value {
          tensor {
            dtype: DT_INT32
            tensor_shape {
            }
            int_val: 10
          }
        }
      }
    }
    node_def {
      name: "cond_5/map_2/while/map/while/iteration_counter"
      op: "Const"
      input: "^cond_5/map_2/while/Identity"
      device: "/device:CPU:0"
      attr {
        key: "dtype"
        value {
          type: DT_INT32
        }
      }
      attr {
        key: "value"
        value {
          tensor {
            dtype: DT_INT32
            tensor_shape {
            }
            int_val: 0
          }
        }
      }
    }
    node_def {
      name: "cond_5/map_2/while/map/while/Enter"
      op: "Enter"
      input: "cond_5/map_2/while/map/while/iteration_counter:output:0"
      device: "/device:CPU:0"
      attr {
        key: "T"
        value {
          type: DT_INT32
        }
      }
      attr {
        key: "frame_name"
        value {
          s: "cond_5/map_2/while/map/while/while_context"
        }
      }
      attr {
        key: "is_constant"
        value {
          b: false
        }
      }
      attr {
        key: "parallel_iterations"
        value {
          i: 10
        }
      }
    }
    node_def {
      name: "cond_5/map_2/while/map/while/Enter_1"
      op: "Enter"
      input: "cond_5/map_2/while/map/Const:output:0"
      device: "/device:CPU:0"
      attr {
        key: "T"
        value {
          type: DT_INT32
        }
      }
      attr {
        key: "frame_name"
        value {
          s: "cond_5/map_2/while/map/while/while_context"
        }
      }
      attr {
        key: "is_constant"
        value {
          b: false
        }
      }
      attr {
        key: "parallel_iterations"
        value {
          i: 10
        }
      }
    }
    node_def {
      name: "cond_5/map_2/while/map/while/Enter_2"
      op: "Enter"
      input: "cond_5/map_2/while/map/TensorArray_1:flow:0"
      device: "/device:CPU:0"
      attr {
        key: "T"
        value {
          type: DT_FLOAT
        }
      }
      attr {
        key: "frame_name"
        value {
          s: "cond_5/map_2/while/map/while/while_context"
        }
      }
      attr {
        key: "is_constant"
        value {
          b: false
        }
      }
      attr {
        key: "parallel_iterations"
        value {
          i: 10
        }
      }
    }
    node_def {
      name: "cond_5/map_2/while/map/while/Enter_3"
      op: "Enter"
      input: "cond_5/map_2/while/map/TensorArray_2:flow:0"
      device: "/device:CPU:0"
      attr {
        key: "T"
        value {
          type: DT_FLOAT
        }
      }
      attr {
        key: "frame_name"
        value {
          s: "cond_5/map_2/while/map/while/while_context"
        }
      }
      attr {
        key: "is_constant"
        value {
          b: false
        }
      }
      attr {
        key: "parallel_iterations"
        value {
          i: 10
        }
      }
    }
    node_def {
      name: "cond_5/map_2/while/map/while/Merge"
      op: "Merge"
      input: "cond_5/map_2/while/map/while/Enter:output:0"
      input: "cond_5/map_2/while/map/while/NextIteration:output:0"
      device: "/device:CPU:0"
      attr {
        key: "N"
        value {
          i: 2
        }
      }
      attr {
        key: "T"
        value {
          type: DT_INT32
        }
      }
    }
    node_def {
      name: "cond_5/map_2/while/map/while/Merge_1"
      op: "Merge"
      input: "cond_5/map_2/while/map/while/Enter_1:output:0"
      input: "cond_5/map_2/while/map/while/NextIteration_1:output:0"
      device: "/device:CPU:0"
      attr {
        key: "N"
        value {
          i: 2
        }
      }
      attr {
        key: "T"
        value {
          type: DT_INT32
        }
      }
    }
    node_def {
      name: "cond_5/map_2/while/map/while/Merge_2"
      op: "Merge"
      input: "cond_5/map_2/while/map/while/Enter_2:output:0"
      input: "cond_5/map_2/while/map/while/NextIteration_2:output:0"
      device: "/device:CPU:0"
      attr {
        key: "N"
        value {
          i: 2
        }
      }
      attr {
        key: "T"
        value {
          type: DT_FLOAT
        }
      }
    }
    node_def {
      name: "cond_5/map_2/while/map/while/Merge_3"
      op: "Merge"
      input: "cond_5/map_2/while/map/while/Enter_3:output:0"
      input: "cond_5/map_2/while/map/while/NextIteration_3:output:0"
      device: "/device:CPU:0"
      attr {
        key: "N"
        value {
          i: 2
        }
      }
      attr {
        key: "T"
        value {
          type: DT_FLOAT
        }
      }
    }
    node_def {
      name: "cond_5/map_2/while/map/while/Less"
      op: "Less"
      input: "cond_5/map_2/while/map/while/Merge:output:0"
      input: "cond_5/map_2/while/map/while/Less/Enter:output:0"
      device: "/device:CPU:0"
      attr {
        key: "T"
        value {
          type: DT_INT32
        }
      }
    }
    node_def {
      name: "cond_5/map_2/while/map/while/Less/Enter"
      op: "Enter"
      input: "cond_5/map_2/while/map/while/maximum_iterations:output:0"
      device: "/device:CPU:0"
      attr {
        key: "T"
        value {
          type: DT_INT32
        }
      }
      attr {
        key: "frame_name"
        value {
          s: "cond_5/map_2/while/map/while/while_context"
        }
      }
      attr {
        key: "is_constant"
        value {
          b: true
        }
      }
      attr {
        key: "parallel_iterations"
        value {
          i: 10
        }
      }
    }
    node_def {
      name: "cond_5/map_2/while/map/while/Less_1/y"
      op: "Const"
      input: "^cond_5/map_2/while/map/while/Merge"
      device: "/device:CPU:0"
      attr {
        key: "dtype"
        value {
          type: DT_INT32
        }
      }
      attr {
        key: "value"
        value {
          tensor {
            dtype: DT_INT32
            tensor_shape {
            }
            int_val: 10
          }
        }
      }
    }
    node_def {
      name: "cond_5/map_2/while/map/while/Less_1"
      op: "Less"
      input: "cond_5/map_2/while/map/while/Merge_1:output:0"
      input: "cond_5/map_2/while/map/while/Less_1/y:output:0"
      device: "/device:CPU:0"
      attr {
        key: "T"
        value {
          type: DT_INT32
        }
      }
    }
    node_def {
      name: "cond_5/map_2/while/map/while/LogicalAnd"
      op: "LogicalAnd"
      input: "cond_5/map_2/while/map/while/Less:z:0"
      input: "cond_5/map_2/while/map/while/Less_1:z:0"
      device: "/device:CPU:0"
    }
    node_def {
      name: "cond_5/map_2/while/map/while/LoopCond"
      op: "LoopCond"
      input: "cond_5/map_2/while/map/while/LogicalAnd:z:0"
      device: "/device:CPU:0"
    }
    node_def {
      name: "cond_5/map_2/while/map/while/Switch"
      op: "Switch"
      input: "cond_5/map_2/while/map/while/Merge:output:0"
      input: "cond_5/map_2/while/map/while/LoopCond:output:0"
      device: "/device:CPU:0"
      attr {
        key: "T"
        value {
          type: DT_INT32
        }
      }
      attr {
        key: "_class"
        value {
          list {
            s: "loc:@cond_5/map_2/while/map/while/Merge"
          }
        }
      }
    }
    node_def {
      name: "cond_5/map_2/while/map/while/Switch_1"
      op: "Switch"
      input: "cond_5/map_2/while/map/while/Merge_1:output:0"
      input: "cond_5/map_2/while/map/while/LoopCond:output:0"
      device: "/device:CPU:0"
      attr {
        key: "T"
        value {
          type: DT_INT32
        }
      }
      attr {
        key: "_class"
        value {
          list {
            s: "loc:@cond_5/map_2/while/map/while/Merge_1"
          }
        }
      }
    }
    node_def {
      name: "cond_5/map_2/while/map/while/Switch_2"
      op: "Switch"
      input: "cond_5/map_2/while/map/while/Merge_2:output:0"
      input: "cond_5/map_2/while/map/while/LoopCond:output:0"
      device: "/device:CPU:0"
      attr {
        key: "T"
        value {
          type: DT_FLOAT
        }
      }
      attr {
        key: "_class"
        value {
          list {
            s: "loc:@cond_5/map_2/while/map/while/Merge_2"
          }
        }
      }
    }
    node_def {
      name: "cond_5/map_2/while/map/while/Switch_3"
      op: "Switch"
      input: "cond_5/map_2/while/map/while/Merge_3:output:0"
      input: "cond_5/map_2/while/map/while/LoopCond:output:0"
      device: "/device:CPU:0"
      attr {
        key: "T"
        value {
          type: DT_FLOAT
        }
      }
      attr {
        key: "_class"
        value {
          list {
            s: "loc:@cond_5/map_2/while/map/while/Merge_3"
          }
        }
      }
    }
    node_def {
      name: "cond_5/map_2/while/map/while/Identity"
      op: "Identity"
      input: "cond_5/map_2/while/map/while/Switch:output_true:0"
      device: "/device:CPU:0"
      attr {
        key: "T"
        value {
          type: DT_INT32
        }
      }
    }
    node_def {
      name: "cond_5/map_2/while/map/while/Identity_1"
      op: "Identity"
      input: "cond_5/map_2/while/map/while/Switch_1:output_true:0"
      device: "/device:CPU:0"
      attr {
        key: "T"
        value {
          type: DT_INT32
        }
      }
    }
    node_def {
      name: "cond_5/map_2/while/map/while/Identity_2"
      op: "Identity"
      input: "cond_5/map_2/while/map/while/Switch_2:output_true:0"
      device: "/device:CPU:0"
      attr {
        key: "T"
        value {
          type: DT_FLOAT
        }
      }
    }
    node_def {
      name: "cond_5/map_2/while/map/while/Identity_3"
      op: "Identity"
      input: "cond_5/map_2/while/map/while/Switch_3:output_true:0"
      device: "/device:CPU:0"
      attr {
        key: "T"
        value {
          type: DT_FLOAT
        }
      }
    }
    node_def {
      name: "cond_5/map_2/while/map/while/add/y"
      op: "Const"
      input: "^cond_5/map_2/while/map/while/Identity"
      device: "/device:CPU:0"
      attr {
        key: "dtype"
        value {
          type: DT_INT32
        }
      }
      attr {
        key: "value"
        value {
          tensor {
            dtype: DT_INT32
            tensor_shape {
            }
            int_val: 1
          }
        }
      }
    }
    node_def {
      name: "cond_5/map_2/while/map/while/add"
      op: "Add"
      input: "cond_5/map_2/while/map/while/Identity:output:0"
      input: "cond_5/map_2/while/map/while/add/y:output:0"
      device: "/device:CPU:0"
      attr {
        key: "T"
        value {
          type: DT_INT32
        }
      }
    }
    node_def {
      name: "cond_5/map_2/while/map/while/TensorArrayReadV3"
      op: "TensorArrayReadV3"
      input: "cond_5/map_2/while/map/while/TensorArrayReadV3/Enter:output:0"
      input: "cond_5/map_2/while/map/while/Identity_1:output:0"
      input: "cond_5/map_2/while/map/while/TensorArrayReadV3/Enter_1:output:0"
      device: "/device:CPU:0"
      attr {
        key: "dtype"
        value {
          type: DT_INT64
        }
      }
    }
    node_def {
      name: "cond_5/map_2/while/map/while/TensorArrayReadV3/Enter"
      op: "Enter"
      input: "cond_5/map_2/while/map/TensorArray:handle:0"
      device: "/device:CPU:0"
      attr {
        key: "T"
        value {
          type: DT_RESOURCE
        }
      }
      attr {
        key: "frame_name"
        value {
          s: "cond_5/map_2/while/map/while/while_context"
        }
      }
      attr {
        key: "is_constant"
        value {
          b: true
        }
      }
      attr {
        key: "parallel_iterations"
        value {
          i: 10
        }
      }
    }
    node_def {
      name: "cond_5/map_2/while/map/while/TensorArrayReadV3/Enter_1"
      op: "Enter"
      input: "cond_5/map_2/while/map/TensorArrayUnstack/TensorArrayScatter/TensorArrayScatterV3:flow_out:0"
      device: "/device:CPU:0"
      attr {
        key: "T"
        value {
          type: DT_FLOAT
        }
      }
      attr {
        key: "frame_name"
        value {
          s: "cond_5/map_2/while/map/while/while_context"
        }
      }
      attr {
        key: "is_constant"
        value {
          b: true
        }
      }
      attr {
        key: "parallel_iterations"
        value {
          i: 10
        }
      }
    }
    node_def {
      name: "cond_5/map_2/while/map/while/TensorArrayWrite/TensorArrayWriteV3"
      op: "TensorArrayWriteV3"
      input: "cond_5/map_2/while/map/while/TensorArrayWrite/TensorArrayWriteV3/Enter:output:0"
      input: "cond_5/map_2/while/map/while/Identity_1:output:0"
      input: "cond_5/map_2/while/map/while/TensorArrayWrite/TensorArrayWriteV3/Enter_1:output:0"
      input: "cond_5/map_2/while/map/while/Identity_2:output:0"
      device: "/device:CPU:0"
      attr {
        key: "T"
        value {
          type: DT_INT64
        }
      }
      attr {
        key: "_class"
        value {
          list {
            s: "loc:@cond_5/map_2/while/TensorArrayReadV3"
          }
        }
      }
    }
    node_def {
      name: "cond_5/map_2/while/map/while/TensorArrayWrite/TensorArrayWriteV3/Enter"
      op: "Enter"
      input: "cond_5/map_2/while/map/TensorArray_1:handle:0"
      device: "/device:CPU:0"
      attr {
        key: "T"
        value {
          type: DT_RESOURCE
        }
      }
      attr {
        key: "_class"
        value {
          list {
            s: "loc:@cond_5/map_2/while/TensorArrayReadV3"
          }
        }
      }
      attr {
        key: "frame_name"
        value {
          s: "cond_5/map_2/while/map/while/while_context"
        }
      }
      attr {
        key: "is_constant"
        value {
          b: true
        }
      }
      attr {
        key: "parallel_iterations"
        value {
          i: 10
        }
      }
    }
    node_def {
      name: "cond_5/map_2/while/map/while/TensorArrayWrite/TensorArrayWriteV3/Enter_1"
      op: "Enter"
      input: "cond_5/map_2/while/TensorArrayReadV3:value:0"
      device: "/device:CPU:0"
      attr {
        key: "T"
        value {
          type: DT_INT64
        }
      }
      attr {
        key: "_class"
        value {
          list {
            s: "loc:@cond_5/map_2/while/TensorArrayReadV3"
          }
        }
      }
      attr {
        key: "frame_name"
        value {
          s: "cond_5/map_2/while/map/while/while_context"
        }
      }
      attr {
        key: "is_constant"
        value {
          b: true
        }
      }
      attr {
        key: "parallel_iterations"
        value {
          i: 10
        }
      }
    }
    node_def {
      name: "cond_5/map_2/while/map/while/TensorArrayWrite_1/TensorArrayWriteV3"
      op: "TensorArrayWriteV3"
      input: "cond_5/map_2/while/map/while/TensorArrayWrite_1/TensorArrayWriteV3/Enter:output:0"
      input: "cond_5/map_2/while/map/while/Identity_1:output:0"
      input: "cond_5/map_2/while/map/while/TensorArrayReadV3:value:0"
      input: "cond_5/map_2/while/map/while/Identity_3:output:0"
      device: "/device:CPU:0"
      attr {
        key: "T"
        value {
          type: DT_INT64
        }
      }
      attr {
        key: "_class"
        value {
          list {
            s: "loc:@cond_5/map_2/while/map/while/TensorArrayReadV3"
          }
        }
      }
    }
    node_def {
      name: "cond_5/map_2/while/map/while/TensorArrayWrite_1/TensorArrayWriteV3/Enter"
      op: "Enter"
      input: "cond_5/map_2/while/map/TensorArray_2:handle:0"
      device: "/device:CPU:0"
      attr {
        key: "T"
        value {
          type: DT_RESOURCE
        }
      }
      attr {
        key: "_class"
        value {
          list {
            s: "loc:@cond_5/map_2/while/map/while/TensorArrayReadV3"
          }
        }
      }
      attr {
        key: "frame_name"
        value {
          s: "cond_5/map_2/while/map/while/while_context"
        }
      }
      attr {
        key: "is_constant"
        value {
          b: true
        }
      }
      attr {
        key: "parallel_iterations"
        value {
          i: 10
        }
      }
    }
    node_def {
      name: "cond_5/map_2/while/map/while/add_1/y"
      op: "Const"
      input: "^cond_5/map_2/while/map/while/Identity"
      device: "/device:CPU:0"
      attr {
        key: "dtype"
        value {
          type: DT_INT32
        }
      }
      attr {
        key: "value"
        value {
          tensor {
            dtype: DT_INT32
            tensor_shape {
            }
            int_val: 1
          }
        }
      }
    }
    node_def {
      name: "cond_5/map_2/while/map/while/add_1"
      op: "Add"
      input: "cond_5/map_2/while/map/while/Identity_1:output:0"
      input: "cond_5/map_2/while/map/while/add_1/y:output:0"
      device: "/device:CPU:0"
      attr {
        key: "T"
        value {
          type: DT_INT32
        }
      }
    }
    node_def {
      name: "cond_5/map_2/while/map/while/NextIteration"
      op: "NextIteration"
      input: "cond_5/map_2/while/map/while/add:z:0"
      device: "/device:CPU:0"
      attr {
        key: "T"
        value {
          type: DT_INT32
        }
      }
    }
    node_def {
      name: "cond_5/map_2/while/map/while/NextIteration_1"
      op: "NextIteration"
      input: "cond_5/map_2/while/map/while/add_1:z:0"
      device: "/device:CPU:0"
      attr {
        key: "T"
        value {
          type: DT_INT32
        }
      }
    }
    node_def {
      name: "cond_5/map_2/while/map/while/NextIteration_2"
      op: "NextIteration"
      input: "cond_5/map_2/while/map/while/TensorArrayWrite/TensorArrayWriteV3:flow_out:0"
      device: "/device:CPU:0"
      attr {
        key: "T"
        value {
          type: DT_FLOAT
        }
      }
    }
    node_def {
      name: "cond_5/map_2/while/map/while/NextIteration_3"
      op: "NextIteration"
      input: "cond_5/map_2/while/map/while/TensorArrayWrite_1/TensorArrayWriteV3:flow_out:0"
      device: "/device:CPU:0"
      attr {
        key: "T"
        value {
          type: DT_FLOAT
        }
      }
    }
    node_def {
      name: "cond_5/map_2/while/map/while/Exit"
      op: "Exit"
      input: "cond_5/map_2/while/map/while/Switch:output_false:0"
      device: "/device:CPU:0"
      attr {
        key: "T"
        value {
          type: DT_INT32
        }
      }
    }
    node_def {
      name: "cond_5/map_2/while/map/while/Exit_1"
      op: "Exit"
      input: "cond_5/map_2/while/map/while/Switch_1:output_false:0"
      device: "/device:CPU:0"
      attr {
        key: "T"
        value {
          type: DT_INT32
        }
      }
    }
    node_def {
      name: "cond_5/map_2/while/map/while/Exit_2"
      op: "Exit"
      input: "cond_5/map_2/while/map/while/Switch_2:output_false:0"
      device: "/device:CPU:0"
      attr {
        key: "T"
        value {
          type: DT_FLOAT
        }
      }
    }
    node_def {
      name: "cond_5/map_2/while/map/while/Exit_3"
      op: "Exit"
      input: "cond_5/map_2/while/map/while/Switch_3:output_false:0"
      device: "/device:CPU:0"
      attr {
        key: "T"
        value {
          type: DT_FLOAT
        }
      }
    }
    node_def {
      name: "cond_5/map_2/while/map/TensorArrayStack/TensorArraySizeV3"
      op: "TensorArraySizeV3"
      input: "cond_5/map_2/while/map/TensorArray_1:handle:0"
      input: "cond_5/map_2/while/map/while/Exit_2:output:0"
      attr {
        key: "_class"
        value {
          list {
            s: "loc:@cond_5/map_2/while/map/TensorArray_1"
          }
        }
      }
    }
    node_def {
      name: "cond_5/map_2/while/map/TensorArrayStack/range/start"
      op: "Const"
      input: "^cond_5/map_2/while/Identity"
      attr {
        key: "_class"
        value {
          list {
            s: "loc:@cond_5/map_2/while/map/TensorArray_1"
          }
        }
      }
      attr {
        key: "dtype"
        value {
          type: DT_INT32
        }
      }
      attr {
        key: "value"
        value {
          tensor {
            dtype: DT_INT32
            tensor_shape {
            }
            int_val: 0
          }
        }
      }
    }
    node_def {
      name: "cond_5/map_2/while/map/TensorArrayStack/range/delta"
      op: "Const"
      input: "^cond_5/map_2/while/Identity"
      attr {
        key: "_class"
        value {
          list {
            s: "loc:@cond_5/map_2/while/map/TensorArray_1"
          }
        }
      }
      attr {
        key: "dtype"
        value {
          type: DT_INT32
        }
      }
      attr {
        key: "value"
        value {
          tensor {
            dtype: DT_INT32
            tensor_shape {
            }
            int_val: 1
          }
        }
      }
    }
    node_def {
      name: "cond_5/map_2/while/map/TensorArrayStack/range"
      op: "Range"
      input: "cond_5/map_2/while/map/TensorArrayStack/range/start:output:0"
      input: "cond_5/map_2/while/map/TensorArrayStack/TensorArraySizeV3:size:0"
      input: "cond_5/map_2/while/map/TensorArrayStack/range/delta:output:0"
      attr {
        key: "Tidx"
        value {
          type: DT_INT32
        }
      }
      attr {
        key: "_class"
        value {
          list {
            s: "loc:@cond_5/map_2/while/map/TensorArray_1"
          }
        }
      }
    }
    node_def {
      name: "cond_5/map_2/while/map/TensorArrayStack/TensorArrayGatherV3"
      op: "TensorArrayGatherV3"
      input: "cond_5/map_2/while/map/TensorArray_1:handle:0"
      input: "cond_5/map_2/while/map/TensorArrayStack/range:output:0"
      input: "cond_5/map_2/while/map/while/Exit_2:output:0"
      attr {
        key: "_class"
        value {
          list {
            s: "loc:@cond_5/map_2/while/map/TensorArray_1"
          }
        }
      }
      attr {
        key: "dtype"
        value {
          type: DT_INT64
        }
      }
      attr {
        key: "element_shape"
        value {
          shape {
          }
        }
      }
    }
    node_def {
      name: "cond_5/map_2/while/map/TensorArrayStack_1/TensorArraySizeV3"
      op: "TensorArraySizeV3"
      input: "cond_5/map_2/while/map/TensorArray_2:handle:0"
      input: "cond_5/map_2/while/map/while/Exit_3:output:0"
      attr {
        key: "_class"
        value {
          list {
            s: "loc:@cond_5/map_2/while/map/TensorArray_2"
          }
        }
      }
    }
    node_def {
      name: "cond_5/map_2/while/map/TensorArrayStack_1/range/start"
      op: "Const"
      input: "^cond_5/map_2/while/Identity"
      attr {
        key: "_class"
        value {
          list {
            s: "loc:@cond_5/map_2/while/map/TensorArray_2"
          }
        }
      }
      attr {
        key: "dtype"
        value {
          type: DT_INT32
        }
      }
      attr {
        key: "value"
        value {
          tensor {
            dtype: DT_INT32
            tensor_shape {
            }
            int_val: 0
          }
        }
      }
    }
    node_def {
      name: "cond_5/map_2/while/map/TensorArrayStack_1/range/delta"
      op: "Const"
      input: "^cond_5/map_2/while/Identity"
      attr {
        key: "_class"
        value {
          list {
            s: "loc:@cond_5/map_2/while/map/TensorArray_2"
          }
        }
      }
      attr {
        key: "dtype"
        value {
          type: DT_INT32
        }
      }
      attr {
        key: "value"
        value {
          tensor {
            dtype: DT_INT32
            tensor_shape {
            }
            int_val: 1
          }
        }
      }
    }
    node_def {
      name: "cond_5/map_2/while/map/TensorArrayStack_1/range"
      op: "Range"
      input: "cond_5/map_2/while/map/TensorArrayStack_1/range/start:output:0"
      input: "cond_5/map_2/while/map/TensorArrayStack_1/TensorArraySizeV3:size:0"
      input: "cond_5/map_2/while/map/TensorArrayStack_1/range/delta:output:0"
      attr {
        key: "Tidx"
        value {
          type: DT_INT32
        }
      }
      attr {
        key: "_class"
        value {
          list {
            s: "loc:@cond_5/map_2/while/map/TensorArray_2"
          }
        }
      }
    }
    node_def {
      name: "cond_5/map_2/while/map/TensorArrayStack_1/TensorArrayGatherV3"
      op: "TensorArrayGatherV3"
      input: "cond_5/map_2/while/map/TensorArray_2:handle:0"
      input: "cond_5/map_2/while/map/TensorArrayStack_1/range:output:0"
      input: "cond_5/map_2/while/map/while/Exit_3:output:0"
      attr {
        key: "_class"
        value {
          list {
            s: "loc:@cond_5/map_2/while/map/TensorArray_2"
          }
        }
      }
      attr {
        key: "dtype"
        value {
          type: DT_INT64
        }
      }
      attr {
        key: "element_shape"
        value {
          shape {
          }
        }
      }
    }
    node_def {
      name: "cond_5/map_2/while/TensorArrayWrite/TensorArrayWriteV3"
      op: "TensorArrayWriteV3"
      input: "cond_5/map_2/while/TensorArrayWrite/TensorArrayWriteV3/Enter:output:0"
      input: "cond_5/map_2/while/Identity_1:output:0"
      input: "cond_5/map_2/while/map/TensorArrayStack/TensorArrayGatherV3:value:0"
      input: "cond_5/map_2/while/Identity_2:output:0"
      attr {
        key: "T"
        value {
          type: DT_INT64
        }
      }
      attr {
        key: "_class"
        value {
          list {
            s: "loc:@cond_5/map_2/while/map/TensorArray_1"
          }
        }
      }
    }
    node_def {
      name: "cond_5/map_2/while/TensorArrayWrite/TensorArrayWriteV3/Enter"
      op: "Enter"
      input: "cond_5/map_2/TensorArray_2:handle:0"
      attr {
        key: "T"
        value {
          type: DT_RESOURCE
        }
      }
      attr {
        key: "_class"
        value {
          list {
            s: "loc:@cond_5/map_2/while/map/TensorArray_1"
          }
        }
      }
      attr {
        key: "frame_name"
        value {
          s: "cond_5/map_2/while/while_context"
        }
      }
      attr {
        key: "is_constant"
        value {
          b: true
        }
      }
      attr {
        key: "parallel_iterations"
        value {
          i: 10
        }
      }
    }
    node_def {
      name: "cond_5/map_2/while/TensorArrayWrite_1/TensorArrayWriteV3"
      op: "TensorArrayWriteV3"
      input: "cond_5/map_2/while/TensorArrayWrite_1/TensorArrayWriteV3/Enter:output:0"
      input: "cond_5/map_2/while/Identity_1:output:0"
      input: "cond_5/map_2/while/map/TensorArrayStack_1/TensorArrayGatherV3:value:0"
      input: "cond_5/map_2/while/Identity_3:output:0"
      attr {
        key: "T"
        value {
          type: DT_INT64
        }
      }
      attr {
        key: "_class"
        value {
          list {
            s: "loc:@cond_5/map_2/while/map/TensorArray_2"
          }
        }
      }
    }
    node_def {
      name: "cond_5/map_2/while/TensorArrayWrite_1/TensorArrayWriteV3/Enter"
      op: "Enter"
      input: "cond_5/map_2/TensorArray_3:handle:0"
      attr {
        key: "T"
        value {
          type: DT_RESOURCE
        }
      }
      attr {
        key: "_class"
        value {
          list {
            s: "loc:@cond_5/map_2/while/map/TensorArray_2"
          }
        }
      }
      attr {
        key: "frame_name"
        value {
          s: "cond_5/map_2/while/while_context"
        }
      }
      attr {
        key: "is_constant"
        value {
          b: true
        }
      }
      attr {
        key: "parallel_iterations"
        value {
          i: 10
        }
      }
    }
    node_def {
      name: "cond_5/map_2/while/add_1/y"
      op: "Const"
      input: "^cond_5/map_2/while/Identity"
      device: "/device:CPU:0"
      attr {
        key: "dtype"
        value {
          type: DT_INT32
        }
      }
      attr {
        key: "value"
        value {
          tensor {
            dtype: DT_INT32
            tensor_shape {
            }
            int_val: 1
          }
        }
      }
    }
    node_def {
      name: "cond_5/map_2/while/add_1"
      op: "Add"
      input: "cond_5/map_2/while/Identity_1:output:0"
      input: "cond_5/map_2/while/add_1/y:output:0"
      device: "/device:CPU:0"
      attr {
        key: "T"
        value {
          type: DT_INT32
        }
      }
    }
    node_def {
      name: "cond_5/map_2/while/NextIteration"
      op: "NextIteration"
      input: "cond_5/map_2/while/add:z:0"
      device: "/device:CPU:0"
      attr {
        key: "T"
        value {
          type: DT_INT32
        }
      }
    }
    node_def {
      name: "cond_5/map_2/while/NextIteration_1"
      op: "NextIteration"
      input: "cond_5/map_2/while/add_1:z:0"
      device: "/device:CPU:0"
      attr {
        key: "T"
        value {
          type: DT_INT32
        }
      }
    }
    node_def {
      name: "cond_5/map_2/while/NextIteration_2"
      op: "NextIteration"
      input: "cond_5/map_2/while/TensorArrayWrite/TensorArrayWriteV3:flow_out:0"
      device: "/device:CPU:0"
      attr {
        key: "T"
        value {
          type: DT_FLOAT
        }
      }
    }
    node_def {
      name: "cond_5/map_2/while/NextIteration_3"
      op: "NextIteration"
      input: "cond_5/map_2/while/TensorArrayWrite_1/TensorArrayWriteV3:flow_out:0"
      device: "/device:CPU:0"
      attr {
        key: "T"
        value {
          type: DT_FLOAT
        }
      }
    }
    node_def {
      name: "cond_5/map_2/while/Exit"
      op: "Exit"
      input: "cond_5/map_2/while/Switch:output_false:0"
      device: "/device:CPU:0"
      attr {
        key: "T"
        value {
          type: DT_INT32
        }
      }
    }
    node_def {
      name: "cond_5/map_2/while/Exit_1"
      op: "Exit"
      input: "cond_5/map_2/while/Switch_1:output_false:0"
      device: "/device:CPU:0"
      attr {
        key: "T"
        value {
          type: DT_INT32
        }
      }
    }
    node_def {
      name: "cond_5/map_2/while/Exit_2"
      op: "Exit"
      input: "cond_5/map_2/while/Switch_2:output_false:0"
      device: "/device:CPU:0"
      attr {
        key: "T"
        value {
          type: DT_FLOAT
        }
      }
    }
    node_def {
      name: "cond_5/map_2/while/Exit_3"
      op: "Exit"
      input: "cond_5/map_2/while/Switch_3:output_false:0"
      device: "/device:CPU:0"
      attr {
        key: "T"
        value {
          type: DT_FLOAT
        }
      }
    }
    node_def {
      name: "cond_5/map_2/TensorArrayStack/TensorArraySizeV3"
      op: "TensorArraySizeV3"
      input: "cond_5/map_2/TensorArray_2:handle:0"
      input: "cond_5/map_2/while/Exit_2:output:0"
      attr {
        key: "_class"
        value {
          list {
            s: "loc:@cond_5/map_2/TensorArray_2"
          }
        }
      }
    }
    node_def {
      name: "cond_5/map_2/TensorArrayStack/range/start"
      op: "Const"
      input: "^cond_5/switch_f"
      attr {
        key: "_class"
        value {
          list {
            s: "loc:@cond_5/map_2/TensorArray_2"
          }
        }
      }
      attr {
        key: "dtype"
        value {
          type: DT_INT32
        }
      }
      attr {
        key: "value"
        value {
          tensor {
            dtype: DT_INT32
            tensor_shape {
            }
            int_val: 0
          }
        }
      }
    }
    node_def {
      name: "cond_5/map_2/TensorArrayStack/range/delta"
      op: "Const"
      input: "^cond_5/switch_f"
      attr {
        key: "_class"
        value {
          list {
            s: "loc:@cond_5/map_2/TensorArray_2"
          }
        }
      }
      attr {
        key: "dtype"
        value {
          type: DT_INT32
        }
      }
      attr {
        key: "value"
        value {
          tensor {
            dtype: DT_INT32
            tensor_shape {
            }
            int_val: 1
          }
        }
      }
    }
    node_def {
      name: "cond_5/map_2/TensorArrayStack/range"
      op: "Range"
      input: "cond_5/map_2/TensorArrayStack/range/start:output:0"
      input: "cond_5/map_2/TensorArrayStack/TensorArraySizeV3:size:0"
      input: "cond_5/map_2/TensorArrayStack/range/delta:output:0"
      attr {
        key: "Tidx"
        value {
          type: DT_INT32
        }
      }
      attr {
        key: "_class"
        value {
          list {
            s: "loc:@cond_5/map_2/TensorArray_2"
          }
        }
      }
    }
    node_def {
      name: "cond_5/map_2/TensorArrayStack/TensorArrayGatherV3"
      op: "TensorArrayGatherV3"
      input: "cond_5/map_2/TensorArray_2:handle:0"
      input: "cond_5/map_2/TensorArrayStack/range:output:0"
      input: "cond_5/map_2/while/Exit_2:output:0"
      attr {
        key: "_class"
        value {
          list {
            s: "loc:@cond_5/map_2/TensorArray_2"
          }
        }
      }
      attr {
        key: "dtype"
        value {
          type: DT_INT64
        }
      }
      attr {
        key: "element_shape"
        value {
          shape {
            dim {
              size: 10
            }
          }
        }
      }
    }
    node_def {
      name: "cond_5/map_2/TensorArrayStack_1/TensorArraySizeV3"
      op: "TensorArraySizeV3"
      input: "cond_5/map_2/TensorArray_3:handle:0"
      input: "cond_5/map_2/while/Exit_3:output:0"
      attr {
        key: "_class"
        value {
          list {
            s: "loc:@cond_5/map_2/TensorArray_3"
          }
        }
      }
    }
    node_def {
      name: "cond_5/map_2/TensorArrayStack_1/range/start"
      op: "Const"
      input: "^cond_5/switch_f"
      attr {
        key: "_class"
        value {
          list {
            s: "loc:@cond_5/map_2/TensorArray_3"
          }
        }
      }
      attr {
        key: "dtype"
        value {
          type: DT_INT32
        }
      }
      attr {
        key: "value"
        value {
          tensor {
            dtype: DT_INT32
            tensor_shape {
            }
            int_val: 0
          }
        }
      }
    }
    node_def {
      name: "cond_5/map_2/TensorArrayStack_1/range/delta"
      op: "Const"
      input: "^cond_5/switch_f"
      attr {
        key: "_class"
        value {
          list {
            s: "loc:@cond_5/map_2/TensorArray_3"
          }
        }
      }
      attr {
        key: "dtype"
        value {
          type: DT_INT32
        }
      }
      attr {
        key: "value"
        value {
          tensor {
            dtype: DT_INT32
            tensor_shape {
            }
            int_val: 1
          }
        }
      }
    }
    node_def {
      name: "cond_5/map_2/TensorArrayStack_1/range"
      op: "Range"
      input: "cond_5/map_2/TensorArrayStack_1/range/start:output:0"
      input: "cond_5/map_2/TensorArrayStack_1/TensorArraySizeV3:size:0"
      input: "cond_5/map_2/TensorArrayStack_1/range/delta:output:0"
      attr {
        key: "Tidx"
        value {
          type: DT_INT32
        }
      }
      attr {
        key: "_class"
        value {
          list {
            s: "loc:@cond_5/map_2/TensorArray_3"
          }
        }
      }
    }
    node_def {
      name: "cond_5/map_2/TensorArrayStack_1/TensorArrayGatherV3"
      op: "TensorArrayGatherV3"
      input: "cond_5/map_2/TensorArray_3:handle:0"
      input: "cond_5/map_2/TensorArrayStack_1/range:output:0"
      input: "cond_5/map_2/while/Exit_3:output:0"
      attr {
        key: "_class"
        value {
          list {
            s: "loc:@cond_5/map_2/TensorArray_3"
          }
        }
      }
      attr {
        key: "dtype"
        value {
          type: DT_INT64
        }
      }
      attr {
        key: "element_shape"
        value {
          shape {
            dim {
              size: 10
            }
          }
        }
      }
    }
    node_def {
      name: "cond_5/transpose_1/a"
      op: "Pack"
      input: "cond_5/map_2/TensorArrayStack/TensorArrayGatherV3:value:0"
      input: "cond_5/map_2/TensorArrayStack_1/TensorArrayGatherV3:value:0"
      device: "/device:CPU:0"
      attr {
        key: "N"
        value {
          i: 2
        }
      }
      attr {
        key: "T"
        value {
          type: DT_INT64
        }
      }
      attr {
        key: "axis"
        value {
          i: 0
        }
      }
    }
    node_def {
      name: "cond_5/transpose_1/perm"
      op: "Const"
      input: "^cond_5/switch_f"
      device: "/device:CPU:0"
      attr {
        key: "dtype"
        value {
          type: DT_INT32
        }
      }
      attr {
        key: "value"
        value {
          tensor {
            dtype: DT_INT32
            tensor_shape {
              dim {
                size: 3
              }
            }
            tensor_content: "\002\000\000\000\001\000\000\000\000\000\000\000"
          }
        }
      }
    }
    node_def {
      name: "cond_5/transpose_1"
      op: "Transpose"
      input: "cond_5/transpose_1/a:output:0"
      input: "cond_5/transpose_1/perm:output:0"
      device: "/device:CPU:0"
      attr {
        key: "T"
        value {
          type: DT_INT64
        }
      }
      attr {
        key: "Tperm"
        value {
          type: DT_INT32
        }
      }
    }
    node_def {
      name: "cond_5/Reshape_2/shape"
      op: "Const"
      input: "^cond_5/switch_f"
      device: "/device:CPU:0"
      attr {
        key: "dtype"
        value {
          type: DT_INT32
        }
      }
      attr {
        key: "value"
        value {
          tensor {
            dtype: DT_INT32
            tensor_shape {
              dim {
                size: 2
              }
            }
            tensor_content: "\004\001\000\000\002\000\000\000"
          }
        }
      }
    }
    node_def {
      name: "cond_5/Reshape_2"
      op: "Reshape"
      input: "cond_5/transpose_1:y:0"
      input: "cond_5/Reshape_2/shape:output:0"
      device: "/device:CPU:0"
      attr {
        key: "T"
        value {
          type: DT_INT64
        }
      }
      attr {
        key: "Tshape"
        value {
          type: DT_INT32
        }
      }
    }
    node_def {
      name: "cond_5/SparseTensor_1/values"
      op: "Const"
      input: "^cond_5/switch_f"
      device: "/device:CPU:0"
      attr {
        key: "dtype"
        value {
          type: DT_STRING
        }
      }
      attr {
        key: "value"
        value {
          tensor {
            dtype: DT_STRING
            tensor_shape {
              dim {
                size: 260
              }
            }
            string_val: "1"
            string_val: "1"
            string_val: "1"
            string_val: "1"
            string_val: "1"
            string_val: "1"
            string_val: "1"
            string_val: "1"
            string_val: "1"
            string_val: "1"
            string_val: "1"
            string_val: "1"
            string_val: "1"
            string_val: "1"
            string_val: "1"
            string_val: "1"
            string_val: "1"
            string_val: "1"
            string_val: "1"
            string_val: "1"
            string_val: "1"
            string_val: "1"
            string_val: "1"
            string_val: "1"
            string_val: "1"
            string_val: "1"
            string_val: "1"
            string_val: "1"
            string_val: "1"
            string_val: "1"
            string_val: "1"
            string_val: "1"
            string_val: "1"
            string_val: "1"
            string_val: "1"
            string_val: "1"
            string_val: "1"
            string_val: "1"
            string_val: "1"
            string_val: "1"
            string_val: "1"
            string_val: "1"
            string_val: "1"
            string_val: "1"
            string_val: "1"
            string_val: "1"
            string_val: "1"
            string_val: "1"
            string_val: "1"
            string_val: "1"
            string_val: "1"
            string_val: "1"
            string_val: "1"
            string_val: "1"
            string_val: "1"
            string_val: "1"
            string_val: "1"
            string_val: "1"
            string_val: "1"
            string_val: "1"
            string_val: "1"
            string_val: "1"
            string_val: "1"
            string_val: "1"
            string_val: "1"
            string_val: "1"
            string_val: "1"
            string_val: "1"
            string_val: "1"
            string_val: "1"
            string_val: "1"
            string_val: "1"
            string_val: "1"
            string_val: "1"
            string_val: "1"
            string_val: "1"
            string_val: "1"
            string_val: "1"
            string_val: "1"
            string_val: "1"
            string_val: "1"
            string_val: "1"
            string_val: "1"
            string_val: "1"
            string_val: "1"
            string_val: "1"
            string_val: "1"
            string_val: "1"
            string_val: "1"
            string_val: "1"
            string_val: "1"
            string_val: "1"
            string_val: "1"
            string_val: "1"
            string_val: "1"
            string_val: "1"
            string_val: "1"
            string_val: "1"
            string_val: "1"
            string_val: "1"
            string_val: "1"
            string_val: "1"
            string_val: "1"
            string_val: "1"
            string_val: "1"
            string_val: "1"
            string_val: "1"
            string_val: "1"
            string_val: "1"
            string_val: "1"
            string_val: "1"
            string_val: "1"
            string_val: "1"
            string_val: "1"
            string_val: "1"
            string_val: "1"
            string_val: "1"
            string_val: "1"
            string_val: "1"
            string_val: "1"
            string_val: "1"
            string_val: "1"
            string_val: "1"
            string_val: "1"
            string_val: "1"
            string_val: "1"
            string_val: "1"
            string_val: "1"
            string_val: "1"
            string_val: "1"
            string_val: "1"
            string_val: "1"
            string_val: "1"
            string_val: "1"
            string_val: "1"
            string_val: "1"
            string_val: "1"
            string_val: "1"
            string_val: "1"
            string_val: "1"
            string_val: "1"
            string_val: "1"
            string_val: "1"
            string_val: "1"
            string_val: "1"
            string_val: "1"
            string_val: "1"
            string_val: "1"
            string_val: "1"
            string_val: "1"
            string_val: "1"
            string_val: "1"
            string_val: "1"
            string_val: "1"
            string_val: "1"
            string_val: "1"
            string_val: "1"
            string_val: "1"
            string_val: "1"
            string_val: "1"
            string_val: "1"
            string_val: "1"
            string_val: "1"
            string_val: "1"
            string_val: "1"
            string_val: "1"
            string_val: "1"
            string_val: "1"
            string_val: "1"
            string_val: "1"
            string_val: "1"
            string_val: "1"
            string_val: "1"
            string_val: "1"
            string_val: "1"
            string_val: "1"
            string_val: "1"
            string_val: "1"
            string_val: "1"
            string_val: "1"
            string_val: "1"
            string_val: "1"
            string_val: "1"
            string_val: "1"
            string_val: "1"
            string_val: "1"
            string_val: "1"
            string_val: "1"
            string_val: "1"
            string_val: "1"
            string_val: "1"
            string_val: "1"
            string_val: "1"
            string_val: "1"
            string_val: "1"
            string_val: "1"
            string_val: "1"
            string_val: "1"
            string_val: "1"
            string_val: "1"
            string_val: "1"
            string_val: "1"
            string_val: "1"
            string_val: "1"
            string_val: "1"
            string_val: "1"
            string_val: "1"
            string_val: "1"
            string_val: "1"
            string_val: "1"
            string_val: "1"
            string_val: "1"
            string_val: "1"
            string_val: "1"
            string_val: "1"
            string_val: "1"
            string_val: "1"
            string_val: "1"
            string_val: "1"
            string_val: "1"
            string_val: "1"
            string_val: "1"
            string_val: "1"
            string_val: "1"
            string_val: "1"
            string_val: "1"
            string_val: "1"
            string_val: "1"
            string_val: "1"
            string_val: "1"
            string_val: "1"
            string_val: "1"
            string_val: "1"
            string_val: "1"
            string_val: "1"
            string_val: "1"
            string_val: "1"
            string_val: "1"
            string_val: "1"
            string_val: "1"
            string_val: "1"
            string_val: "1"
            string_val: "1"
            string_val: "1"
            string_val: "1"
            string_val: "1"
            string_val: "1"
            string_val: "1"
            string_val: "1"
            string_val: "1"
            string_val: "1"
            string_val: "1"
            string_val: "1"
            string_val: "1"
            string_val: "1"
            string_val: "1"
            string_val: "1"
            string_val: "1"
            string_val: "1"
            string_val: "1"
          }
        }
      }
    }
    node_def {
      name: "cond_5/SparseTensor_1/dense_shape"
      op: "Const"
      input: "^cond_5/switch_f"
      device: "/device:CPU:0"
      attr {
        key: "dtype"
        value {
          type: DT_INT64
        }
      }
      attr {
        key: "value"
        value {
          tensor {
            dtype: DT_INT64
            tensor_shape {
              dim {
                size: 2
              }
            }
            tensor_content: "\032\000\000\000\000\000\000\000\270\013\000\000\000\000\000\000"
          }
        }
      }
    }
    node_def {
      name: "cond_5/SparseReorder"
      op: "SparseReorder"
      input: "cond_5/Reshape_2:output:0"
      input: "cond_5/SparseTensor_1/values:output:0"
      input: "cond_5/SparseTensor_1/dense_shape:output:0"
      device: "/device:CPU:0"
      attr {
        key: "T"
        value {
          type: DT_STRING
        }
      }
    }
    node_def {
      name: "cond_5/SparseTensor_2/dense_shape"
      op: "Const"
      input: "^cond_5/switch_f"
      device: "/device:CPU:0"
      attr {
        key: "dtype"
        value {
          type: DT_INT64
        }
      }
      attr {
        key: "value"
        value {
          tensor {
            dtype: DT_INT64
            tensor_shape {
              dim {
                size: 2
              }
            }
            tensor_content: "\032\000\000\000\000\000\000\000\270\013\000\000\000\000\000\000"
          }
        }
      }
    }
    node_def {
      name: "cond_5/SparseToDense_1/default_value"
      op: "Const"
      input: "^cond_5/switch_f"
      device: "/device:CPU:0"
      attr {
        key: "dtype"
        value {
          type: DT_STRING
        }
      }
      attr {
        key: "value"
        value {
          tensor {
            dtype: DT_STRING
            tensor_shape {
            }
            string_val: "0"
          }
        }
      }
    }
    node_def {
      name: "cond_5/SparseToDense_1"
      op: "SparseToDense"
      input: "cond_5/SparseReorder:output_indices:0"
      input: "cond_5/SparseTensor_2/dense_shape:output:0"
      input: "cond_5/SparseReorder:output_values:0"
      input: "cond_5/SparseToDense_1/default_value:output:0"
      device: "/device:CPU:0"
      attr {
        key: "T"
        value {
          type: DT_STRING
        }
      }
      attr {
        key: "Tindices"
        value {
          type: DT_INT64
        }
      }
      attr {
        key: "validate_indices"
        value {
          b: true
        }
      }
    }
    node_def {
      name: "cond_5/Merge"
      op: "Merge"
      input: "cond_5/SparseToDense_1:dense:0"
      input: "cond_5/SparseToDense:dense:0"
      device: "/device:CPU:0"
      attr {
        key: "N"
        value {
          i: 2
        }
      }
      attr {
        key: "T"
        value {
          type: DT_STRING
        }
      }
    }
    node_def {
      name: "stack_0"
      op: "Pack"
      input: "DecodeCSV:output:6"
      device: "/device:CPU:0"
      attr {
        key: "N"
        value {
          i: 1
        }
      }
      attr {
        key: "T"
        value {
          type: DT_STRING
        }
      }
      attr {
        key: "axis"
        value {
          i: 1
        }
      }
    }
    ret {
      key: "cond_1_merge"
      value: "cond_1/Merge:output:0"
    }
    ret {
      key: "cond_2_merge"
      value: "cond_2/Merge:output:0"
    }
    ret {
      key: "cond_3_merge"
      value: "cond_3/Merge:output:0"
    }
    ret {
      key: "cond_4_merge"
      value: "cond_4/Merge:output:0"
    }
    ret {
      key: "cond_5_merge"
      value: "cond_5/Merge:output:0"
    }
    ret {
      key: "cond_merge"
      value: "cond/Merge:output:0"
    }
    ret {
      key: "stack"
      value: "stack_0:output:0"
    }
  }
}
versions {
  producer: 27
  min_consumer: 12
}
